<?xml version="1.0"?>
<net name="PaddlePaddle Graph in PIR mode" version="11">
	<layers>
		<layer id="0" name="x" type="Parameter" version="opset1">
			<data shape="?,3,?,?" element_type="f32" />
			<output>
				<port id="0" precision="FP32" names="x">
					<dim>-1</dim>
					<dim>3</dim>
					<dim>-1</dim>
					<dim>-1</dim>
				</port>
			</output>
		</layer>
		<layer id="1" name="Multiply_7538" type="Const" version="opset1">
			<data element_type="f32" shape="8, 3, 3, 3" offset="0" size="864" />
			<output>
				<port id="0" precision="FP32">
					<dim>8</dim>
					<dim>3</dim>
					<dim>3</dim>
					<dim>3</dim>
				</port>
			</output>
		</layer>
		<layer id="2" name="Multiply_7190" type="Convolution" version="opset1">
			<data strides="2, 2" dilations="1, 1" pads_begin="1, 1" pads_end="1, 1" auto_pad="explicit" />
			<input>
				<port id="0" precision="FP32">
					<dim>-1</dim>
					<dim>3</dim>
					<dim>-1</dim>
					<dim>-1</dim>
				</port>
				<port id="1" precision="FP32">
					<dim>8</dim>
					<dim>3</dim>
					<dim>3</dim>
					<dim>3</dim>
				</port>
			</input>
			<output>
				<port id="2" precision="FP32">
					<dim>-1</dim>
					<dim>8</dim>
					<dim>-1</dim>
					<dim>-1</dim>
				</port>
			</output>
		</layer>
		<layer id="3" name="Constant_7195" type="Const" version="opset1">
			<data element_type="f32" shape="1, 8, 1, 1" offset="864" size="32" />
			<output>
				<port id="0" precision="FP32">
					<dim>1</dim>
					<dim>8</dim>
					<dim>1</dim>
					<dim>1</dim>
				</port>
			</output>
		</layer>
		<layer id="4" name="BatchNormalization.0" type="Add" version="opset1">
			<data auto_broadcast="numpy" />
			<input>
				<port id="0" precision="FP32">
					<dim>-1</dim>
					<dim>8</dim>
					<dim>-1</dim>
					<dim>-1</dim>
				</port>
				<port id="1" precision="FP32">
					<dim>1</dim>
					<dim>8</dim>
					<dim>1</dim>
					<dim>1</dim>
				</port>
			</input>
			<output>
				<port id="2" precision="FP32" names="p2o.pd_op.batch_norm_.0.0">
					<dim>-1</dim>
					<dim>8</dim>
					<dim>-1</dim>
					<dim>-1</dim>
				</port>
			</output>
		</layer>
		<layer id="5" name="Constant_305" type="Const" version="opset1">
			<data element_type="f32" shape="" offset="896" size="4" />
			<output>
				<port id="0" precision="FP32" />
			</output>
		</layer>
		<layer id="6" name="Constant_306" type="Const" version="opset1">
			<data element_type="f32" shape="" offset="900" size="4" />
			<output>
				<port id="0" precision="FP32" />
			</output>
		</layer>
		<layer id="7" name="HardSigmoid.0" type="HardSigmoid" version="opset1">
			<input>
				<port id="0" precision="FP32">
					<dim>-1</dim>
					<dim>8</dim>
					<dim>-1</dim>
					<dim>-1</dim>
				</port>
				<port id="1" precision="FP32" />
				<port id="2" precision="FP32" />
			</input>
			<output>
				<port id="3" precision="FP32" names="HardSigmoid.1">
					<dim>-1</dim>
					<dim>8</dim>
					<dim>-1</dim>
					<dim>-1</dim>
				</port>
			</output>
		</layer>
		<layer id="8" name="Mul.0" type="Multiply" version="opset1">
			<data auto_broadcast="numpy" />
			<input>
				<port id="0" precision="FP32">
					<dim>-1</dim>
					<dim>8</dim>
					<dim>-1</dim>
					<dim>-1</dim>
				</port>
				<port id="1" precision="FP32">
					<dim>-1</dim>
					<dim>8</dim>
					<dim>-1</dim>
					<dim>-1</dim>
				</port>
			</input>
			<output>
				<port id="2" precision="FP32" names="p2o.pd_op.hardswish.0.0">
					<dim>-1</dim>
					<dim>8</dim>
					<dim>-1</dim>
					<dim>-1</dim>
				</port>
			</output>
		</layer>
		<layer id="9" name="Multiply_7542" type="Const" version="opset1">
			<data element_type="f32" shape="8, 8, 1, 1" offset="904" size="256" />
			<output>
				<port id="0" precision="FP32">
					<dim>8</dim>
					<dim>8</dim>
					<dim>1</dim>
					<dim>1</dim>
				</port>
			</output>
		</layer>
		<layer id="10" name="Multiply_7197" type="Convolution" version="opset1">
			<data strides="1, 1" dilations="1, 1" pads_begin="0, 0" pads_end="0, 0" auto_pad="explicit" />
			<input>
				<port id="0" precision="FP32">
					<dim>-1</dim>
					<dim>8</dim>
					<dim>-1</dim>
					<dim>-1</dim>
				</port>
				<port id="1" precision="FP32">
					<dim>8</dim>
					<dim>8</dim>
					<dim>1</dim>
					<dim>1</dim>
				</port>
			</input>
			<output>
				<port id="2" precision="FP32">
					<dim>-1</dim>
					<dim>8</dim>
					<dim>-1</dim>
					<dim>-1</dim>
				</port>
			</output>
		</layer>
		<layer id="11" name="Constant_7202" type="Const" version="opset1">
			<data element_type="f32" shape="1, 8, 1, 1" offset="1160" size="32" />
			<output>
				<port id="0" precision="FP32">
					<dim>1</dim>
					<dim>8</dim>
					<dim>1</dim>
					<dim>1</dim>
				</port>
			</output>
		</layer>
		<layer id="12" name="BatchNormalization.1" type="Add" version="opset1">
			<data auto_broadcast="numpy" />
			<input>
				<port id="0" precision="FP32">
					<dim>-1</dim>
					<dim>8</dim>
					<dim>-1</dim>
					<dim>-1</dim>
				</port>
				<port id="1" precision="FP32">
					<dim>1</dim>
					<dim>8</dim>
					<dim>1</dim>
					<dim>1</dim>
				</port>
			</input>
			<output>
				<port id="2" precision="FP32" names="p2o.pd_op.batch_norm_.1.0">
					<dim>-1</dim>
					<dim>8</dim>
					<dim>-1</dim>
					<dim>-1</dim>
				</port>
			</output>
		</layer>
		<layer id="13" name="Relu.0" type="ReLU" version="opset1">
			<input>
				<port id="0" precision="FP32">
					<dim>-1</dim>
					<dim>8</dim>
					<dim>-1</dim>
					<dim>-1</dim>
				</port>
			</input>
			<output>
				<port id="1" precision="FP32" names="p2o.pd_op.relu.0.0">
					<dim>-1</dim>
					<dim>8</dim>
					<dim>-1</dim>
					<dim>-1</dim>
				</port>
			</output>
		</layer>
		<layer id="14" name="Multiply_7546" type="Const" version="opset1">
			<data element_type="f32" shape="8, 1, 1, 3, 3" offset="1192" size="288" />
			<output>
				<port id="0" precision="FP32">
					<dim>8</dim>
					<dim>1</dim>
					<dim>1</dim>
					<dim>3</dim>
					<dim>3</dim>
				</port>
			</output>
		</layer>
		<layer id="15" name="Multiply_7204" type="GroupConvolution" version="opset1">
			<data strides="1, 1" pads_begin="1, 1" pads_end="1, 1" dilations="1, 1" auto_pad="explicit" />
			<input>
				<port id="0" precision="FP32">
					<dim>-1</dim>
					<dim>8</dim>
					<dim>-1</dim>
					<dim>-1</dim>
				</port>
				<port id="1" precision="FP32">
					<dim>8</dim>
					<dim>1</dim>
					<dim>1</dim>
					<dim>3</dim>
					<dim>3</dim>
				</port>
			</input>
			<output>
				<port id="2" precision="FP32" names="p2o.pd_op.depthwise_conv2d.0.0">
					<dim>-1</dim>
					<dim>8</dim>
					<dim>-1</dim>
					<dim>-1</dim>
				</port>
			</output>
		</layer>
		<layer id="16" name="Constant_7209" type="Const" version="opset1">
			<data element_type="f32" shape="1, 8, 1, 1" offset="1480" size="32" />
			<output>
				<port id="0" precision="FP32">
					<dim>1</dim>
					<dim>8</dim>
					<dim>1</dim>
					<dim>1</dim>
				</port>
			</output>
		</layer>
		<layer id="17" name="BatchNormalization.2" type="Add" version="opset1">
			<data auto_broadcast="numpy" />
			<input>
				<port id="0" precision="FP32">
					<dim>-1</dim>
					<dim>8</dim>
					<dim>-1</dim>
					<dim>-1</dim>
				</port>
				<port id="1" precision="FP32">
					<dim>1</dim>
					<dim>8</dim>
					<dim>1</dim>
					<dim>1</dim>
				</port>
			</input>
			<output>
				<port id="2" precision="FP32" names="p2o.pd_op.batch_norm_.2.0">
					<dim>-1</dim>
					<dim>8</dim>
					<dim>-1</dim>
					<dim>-1</dim>
				</port>
			</output>
		</layer>
		<layer id="18" name="Relu.1" type="ReLU" version="opset1">
			<input>
				<port id="0" precision="FP32">
					<dim>-1</dim>
					<dim>8</dim>
					<dim>-1</dim>
					<dim>-1</dim>
				</port>
			</input>
			<output>
				<port id="1" precision="FP32" names="p2o.pd_op.relu.1.0">
					<dim>-1</dim>
					<dim>8</dim>
					<dim>-1</dim>
					<dim>-1</dim>
				</port>
			</output>
		</layer>
		<layer id="19" name="Multiply_7549" type="Const" version="opset1">
			<data element_type="f32" shape="8, 8, 1, 1" offset="1512" size="256" />
			<output>
				<port id="0" precision="FP32">
					<dim>8</dim>
					<dim>8</dim>
					<dim>1</dim>
					<dim>1</dim>
				</port>
			</output>
		</layer>
		<layer id="20" name="Multiply_7211" type="Convolution" version="opset1">
			<data strides="1, 1" dilations="1, 1" pads_begin="0, 0" pads_end="0, 0" auto_pad="explicit" />
			<input>
				<port id="0" precision="FP32">
					<dim>-1</dim>
					<dim>8</dim>
					<dim>-1</dim>
					<dim>-1</dim>
				</port>
				<port id="1" precision="FP32">
					<dim>8</dim>
					<dim>8</dim>
					<dim>1</dim>
					<dim>1</dim>
				</port>
			</input>
			<output>
				<port id="2" precision="FP32">
					<dim>-1</dim>
					<dim>8</dim>
					<dim>-1</dim>
					<dim>-1</dim>
				</port>
			</output>
		</layer>
		<layer id="21" name="Constant_7216" type="Const" version="opset1">
			<data element_type="f32" shape="1, 8, 1, 1" offset="1768" size="32" />
			<output>
				<port id="0" precision="FP32">
					<dim>1</dim>
					<dim>8</dim>
					<dim>1</dim>
					<dim>1</dim>
				</port>
			</output>
		</layer>
		<layer id="22" name="BatchNormalization.3" type="Add" version="opset1">
			<data auto_broadcast="numpy" />
			<input>
				<port id="0" precision="FP32">
					<dim>-1</dim>
					<dim>8</dim>
					<dim>-1</dim>
					<dim>-1</dim>
				</port>
				<port id="1" precision="FP32">
					<dim>1</dim>
					<dim>8</dim>
					<dim>1</dim>
					<dim>1</dim>
				</port>
			</input>
			<output>
				<port id="2" precision="FP32" names="p2o.pd_op.batch_norm_.3.0">
					<dim>-1</dim>
					<dim>8</dim>
					<dim>-1</dim>
					<dim>-1</dim>
				</port>
			</output>
		</layer>
		<layer id="23" name="p2o.pd_op.add.0.0" type="Add" version="opset1">
			<data auto_broadcast="numpy" />
			<input>
				<port id="0" precision="FP32">
					<dim>-1</dim>
					<dim>8</dim>
					<dim>-1</dim>
					<dim>-1</dim>
				</port>
				<port id="1" precision="FP32">
					<dim>-1</dim>
					<dim>8</dim>
					<dim>-1</dim>
					<dim>-1</dim>
				</port>
			</input>
			<output>
				<port id="2" precision="FP32" names="Add.1,p2o.pd_op.add.0.0">
					<dim>-1</dim>
					<dim>8</dim>
					<dim>-1</dim>
					<dim>-1</dim>
				</port>
			</output>
		</layer>
		<layer id="24" name="Multiply_7553" type="Const" version="opset1">
			<data element_type="f32" shape="32, 8, 1, 1" offset="1800" size="1024" />
			<output>
				<port id="0" precision="FP32">
					<dim>32</dim>
					<dim>8</dim>
					<dim>1</dim>
					<dim>1</dim>
				</port>
			</output>
		</layer>
		<layer id="25" name="Multiply_7218" type="Convolution" version="opset1">
			<data strides="1, 1" dilations="1, 1" pads_begin="0, 0" pads_end="0, 0" auto_pad="explicit" />
			<input>
				<port id="0" precision="FP32">
					<dim>-1</dim>
					<dim>8</dim>
					<dim>-1</dim>
					<dim>-1</dim>
				</port>
				<port id="1" precision="FP32">
					<dim>32</dim>
					<dim>8</dim>
					<dim>1</dim>
					<dim>1</dim>
				</port>
			</input>
			<output>
				<port id="2" precision="FP32">
					<dim>-1</dim>
					<dim>32</dim>
					<dim>-1</dim>
					<dim>-1</dim>
				</port>
			</output>
		</layer>
		<layer id="26" name="Constant_7223" type="Const" version="opset1">
			<data element_type="f32" shape="1, 32, 1, 1" offset="2824" size="128" />
			<output>
				<port id="0" precision="FP32">
					<dim>1</dim>
					<dim>32</dim>
					<dim>1</dim>
					<dim>1</dim>
				</port>
			</output>
		</layer>
		<layer id="27" name="BatchNormalization.4" type="Add" version="opset1">
			<data auto_broadcast="numpy" />
			<input>
				<port id="0" precision="FP32">
					<dim>-1</dim>
					<dim>32</dim>
					<dim>-1</dim>
					<dim>-1</dim>
				</port>
				<port id="1" precision="FP32">
					<dim>1</dim>
					<dim>32</dim>
					<dim>1</dim>
					<dim>1</dim>
				</port>
			</input>
			<output>
				<port id="2" precision="FP32" names="p2o.pd_op.batch_norm_.4.0">
					<dim>-1</dim>
					<dim>32</dim>
					<dim>-1</dim>
					<dim>-1</dim>
				</port>
			</output>
		</layer>
		<layer id="28" name="Relu.2" type="ReLU" version="opset1">
			<input>
				<port id="0" precision="FP32">
					<dim>-1</dim>
					<dim>32</dim>
					<dim>-1</dim>
					<dim>-1</dim>
				</port>
			</input>
			<output>
				<port id="1" precision="FP32" names="p2o.pd_op.relu.2.0">
					<dim>-1</dim>
					<dim>32</dim>
					<dim>-1</dim>
					<dim>-1</dim>
				</port>
			</output>
		</layer>
		<layer id="29" name="Multiply_7557" type="Const" version="opset1">
			<data element_type="f32" shape="32, 1, 1, 3, 3" offset="2952" size="1152" />
			<output>
				<port id="0" precision="FP32">
					<dim>32</dim>
					<dim>1</dim>
					<dim>1</dim>
					<dim>3</dim>
					<dim>3</dim>
				</port>
			</output>
		</layer>
		<layer id="30" name="Multiply_7225" type="GroupConvolution" version="opset1">
			<data strides="2, 2" pads_begin="1, 1" pads_end="1, 1" dilations="1, 1" auto_pad="explicit" />
			<input>
				<port id="0" precision="FP32">
					<dim>-1</dim>
					<dim>32</dim>
					<dim>-1</dim>
					<dim>-1</dim>
				</port>
				<port id="1" precision="FP32">
					<dim>32</dim>
					<dim>1</dim>
					<dim>1</dim>
					<dim>3</dim>
					<dim>3</dim>
				</port>
			</input>
			<output>
				<port id="2" precision="FP32" names="p2o.pd_op.depthwise_conv2d.1.0">
					<dim>-1</dim>
					<dim>32</dim>
					<dim>-1</dim>
					<dim>-1</dim>
				</port>
			</output>
		</layer>
		<layer id="31" name="Constant_7230" type="Const" version="opset1">
			<data element_type="f32" shape="1, 32, 1, 1" offset="4104" size="128" />
			<output>
				<port id="0" precision="FP32">
					<dim>1</dim>
					<dim>32</dim>
					<dim>1</dim>
					<dim>1</dim>
				</port>
			</output>
		</layer>
		<layer id="32" name="BatchNormalization.5" type="Add" version="opset1">
			<data auto_broadcast="numpy" />
			<input>
				<port id="0" precision="FP32">
					<dim>-1</dim>
					<dim>32</dim>
					<dim>-1</dim>
					<dim>-1</dim>
				</port>
				<port id="1" precision="FP32">
					<dim>1</dim>
					<dim>32</dim>
					<dim>1</dim>
					<dim>1</dim>
				</port>
			</input>
			<output>
				<port id="2" precision="FP32" names="p2o.pd_op.batch_norm_.5.0">
					<dim>-1</dim>
					<dim>32</dim>
					<dim>-1</dim>
					<dim>-1</dim>
				</port>
			</output>
		</layer>
		<layer id="33" name="Relu.3" type="ReLU" version="opset1">
			<input>
				<port id="0" precision="FP32">
					<dim>-1</dim>
					<dim>32</dim>
					<dim>-1</dim>
					<dim>-1</dim>
				</port>
			</input>
			<output>
				<port id="1" precision="FP32" names="p2o.pd_op.relu.3.0">
					<dim>-1</dim>
					<dim>32</dim>
					<dim>-1</dim>
					<dim>-1</dim>
				</port>
			</output>
		</layer>
		<layer id="34" name="Multiply_7560" type="Const" version="opset1">
			<data element_type="f32" shape="16, 32, 1, 1" offset="4232" size="2048" />
			<output>
				<port id="0" precision="FP32">
					<dim>16</dim>
					<dim>32</dim>
					<dim>1</dim>
					<dim>1</dim>
				</port>
			</output>
		</layer>
		<layer id="35" name="Multiply_7232" type="Convolution" version="opset1">
			<data strides="1, 1" dilations="1, 1" pads_begin="0, 0" pads_end="0, 0" auto_pad="explicit" />
			<input>
				<port id="0" precision="FP32">
					<dim>-1</dim>
					<dim>32</dim>
					<dim>-1</dim>
					<dim>-1</dim>
				</port>
				<port id="1" precision="FP32">
					<dim>16</dim>
					<dim>32</dim>
					<dim>1</dim>
					<dim>1</dim>
				</port>
			</input>
			<output>
				<port id="2" precision="FP32">
					<dim>-1</dim>
					<dim>16</dim>
					<dim>-1</dim>
					<dim>-1</dim>
				</port>
			</output>
		</layer>
		<layer id="36" name="Constant_7237" type="Const" version="opset1">
			<data element_type="f32" shape="1, 16, 1, 1" offset="6280" size="64" />
			<output>
				<port id="0" precision="FP32">
					<dim>1</dim>
					<dim>16</dim>
					<dim>1</dim>
					<dim>1</dim>
				</port>
			</output>
		</layer>
		<layer id="37" name="BatchNormalization.6" type="Add" version="opset1">
			<data auto_broadcast="numpy" />
			<input>
				<port id="0" precision="FP32">
					<dim>-1</dim>
					<dim>16</dim>
					<dim>-1</dim>
					<dim>-1</dim>
				</port>
				<port id="1" precision="FP32">
					<dim>1</dim>
					<dim>16</dim>
					<dim>1</dim>
					<dim>1</dim>
				</port>
			</input>
			<output>
				<port id="2" precision="FP32" names="p2o.pd_op.batch_norm_.6.0">
					<dim>-1</dim>
					<dim>16</dim>
					<dim>-1</dim>
					<dim>-1</dim>
				</port>
			</output>
		</layer>
		<layer id="38" name="Multiply_7564" type="Const" version="opset1">
			<data element_type="f32" shape="40, 16, 1, 1" offset="6344" size="2560" />
			<output>
				<port id="0" precision="FP32">
					<dim>40</dim>
					<dim>16</dim>
					<dim>1</dim>
					<dim>1</dim>
				</port>
			</output>
		</layer>
		<layer id="39" name="Multiply_7239" type="Convolution" version="opset1">
			<data strides="1, 1" dilations="1, 1" pads_begin="0, 0" pads_end="0, 0" auto_pad="explicit" />
			<input>
				<port id="0" precision="FP32">
					<dim>-1</dim>
					<dim>16</dim>
					<dim>-1</dim>
					<dim>-1</dim>
				</port>
				<port id="1" precision="FP32">
					<dim>40</dim>
					<dim>16</dim>
					<dim>1</dim>
					<dim>1</dim>
				</port>
			</input>
			<output>
				<port id="2" precision="FP32">
					<dim>-1</dim>
					<dim>40</dim>
					<dim>-1</dim>
					<dim>-1</dim>
				</port>
			</output>
		</layer>
		<layer id="40" name="Constant_7244" type="Const" version="opset1">
			<data element_type="f32" shape="1, 40, 1, 1" offset="8904" size="160" />
			<output>
				<port id="0" precision="FP32">
					<dim>1</dim>
					<dim>40</dim>
					<dim>1</dim>
					<dim>1</dim>
				</port>
			</output>
		</layer>
		<layer id="41" name="BatchNormalization.7" type="Add" version="opset1">
			<data auto_broadcast="numpy" />
			<input>
				<port id="0" precision="FP32">
					<dim>-1</dim>
					<dim>40</dim>
					<dim>-1</dim>
					<dim>-1</dim>
				</port>
				<port id="1" precision="FP32">
					<dim>1</dim>
					<dim>40</dim>
					<dim>1</dim>
					<dim>1</dim>
				</port>
			</input>
			<output>
				<port id="2" precision="FP32" names="p2o.pd_op.batch_norm_.7.0">
					<dim>-1</dim>
					<dim>40</dim>
					<dim>-1</dim>
					<dim>-1</dim>
				</port>
			</output>
		</layer>
		<layer id="42" name="Relu.4" type="ReLU" version="opset1">
			<input>
				<port id="0" precision="FP32">
					<dim>-1</dim>
					<dim>40</dim>
					<dim>-1</dim>
					<dim>-1</dim>
				</port>
			</input>
			<output>
				<port id="1" precision="FP32" names="p2o.pd_op.relu.4.0">
					<dim>-1</dim>
					<dim>40</dim>
					<dim>-1</dim>
					<dim>-1</dim>
				</port>
			</output>
		</layer>
		<layer id="43" name="Multiply_7568" type="Const" version="opset1">
			<data element_type="f32" shape="40, 1, 1, 3, 3" offset="9064" size="1440" />
			<output>
				<port id="0" precision="FP32">
					<dim>40</dim>
					<dim>1</dim>
					<dim>1</dim>
					<dim>3</dim>
					<dim>3</dim>
				</port>
			</output>
		</layer>
		<layer id="44" name="Multiply_7246" type="GroupConvolution" version="opset1">
			<data strides="1, 1" pads_begin="1, 1" pads_end="1, 1" dilations="1, 1" auto_pad="explicit" />
			<input>
				<port id="0" precision="FP32">
					<dim>-1</dim>
					<dim>40</dim>
					<dim>-1</dim>
					<dim>-1</dim>
				</port>
				<port id="1" precision="FP32">
					<dim>40</dim>
					<dim>1</dim>
					<dim>1</dim>
					<dim>3</dim>
					<dim>3</dim>
				</port>
			</input>
			<output>
				<port id="2" precision="FP32" names="p2o.pd_op.depthwise_conv2d.2.0">
					<dim>-1</dim>
					<dim>40</dim>
					<dim>-1</dim>
					<dim>-1</dim>
				</port>
			</output>
		</layer>
		<layer id="45" name="Constant_7251" type="Const" version="opset1">
			<data element_type="f32" shape="1, 40, 1, 1" offset="10504" size="160" />
			<output>
				<port id="0" precision="FP32">
					<dim>1</dim>
					<dim>40</dim>
					<dim>1</dim>
					<dim>1</dim>
				</port>
			</output>
		</layer>
		<layer id="46" name="BatchNormalization.8" type="Add" version="opset1">
			<data auto_broadcast="numpy" />
			<input>
				<port id="0" precision="FP32">
					<dim>-1</dim>
					<dim>40</dim>
					<dim>-1</dim>
					<dim>-1</dim>
				</port>
				<port id="1" precision="FP32">
					<dim>1</dim>
					<dim>40</dim>
					<dim>1</dim>
					<dim>1</dim>
				</port>
			</input>
			<output>
				<port id="2" precision="FP32" names="p2o.pd_op.batch_norm_.8.0">
					<dim>-1</dim>
					<dim>40</dim>
					<dim>-1</dim>
					<dim>-1</dim>
				</port>
			</output>
		</layer>
		<layer id="47" name="Relu.5" type="ReLU" version="opset1">
			<input>
				<port id="0" precision="FP32">
					<dim>-1</dim>
					<dim>40</dim>
					<dim>-1</dim>
					<dim>-1</dim>
				</port>
			</input>
			<output>
				<port id="1" precision="FP32" names="p2o.pd_op.relu.5.0">
					<dim>-1</dim>
					<dim>40</dim>
					<dim>-1</dim>
					<dim>-1</dim>
				</port>
			</output>
		</layer>
		<layer id="48" name="Multiply_7571" type="Const" version="opset1">
			<data element_type="f32" shape="16, 40, 1, 1" offset="10664" size="2560" />
			<output>
				<port id="0" precision="FP32">
					<dim>16</dim>
					<dim>40</dim>
					<dim>1</dim>
					<dim>1</dim>
				</port>
			</output>
		</layer>
		<layer id="49" name="Multiply_7253" type="Convolution" version="opset1">
			<data strides="1, 1" dilations="1, 1" pads_begin="0, 0" pads_end="0, 0" auto_pad="explicit" />
			<input>
				<port id="0" precision="FP32">
					<dim>-1</dim>
					<dim>40</dim>
					<dim>-1</dim>
					<dim>-1</dim>
				</port>
				<port id="1" precision="FP32">
					<dim>16</dim>
					<dim>40</dim>
					<dim>1</dim>
					<dim>1</dim>
				</port>
			</input>
			<output>
				<port id="2" precision="FP32">
					<dim>-1</dim>
					<dim>16</dim>
					<dim>-1</dim>
					<dim>-1</dim>
				</port>
			</output>
		</layer>
		<layer id="50" name="Constant_7258" type="Const" version="opset1">
			<data element_type="f32" shape="1, 16, 1, 1" offset="13224" size="64" />
			<output>
				<port id="0" precision="FP32">
					<dim>1</dim>
					<dim>16</dim>
					<dim>1</dim>
					<dim>1</dim>
				</port>
			</output>
		</layer>
		<layer id="51" name="BatchNormalization.9" type="Add" version="opset1">
			<data auto_broadcast="numpy" />
			<input>
				<port id="0" precision="FP32">
					<dim>-1</dim>
					<dim>16</dim>
					<dim>-1</dim>
					<dim>-1</dim>
				</port>
				<port id="1" precision="FP32">
					<dim>1</dim>
					<dim>16</dim>
					<dim>1</dim>
					<dim>1</dim>
				</port>
			</input>
			<output>
				<port id="2" precision="FP32" names="p2o.pd_op.batch_norm_.9.0">
					<dim>-1</dim>
					<dim>16</dim>
					<dim>-1</dim>
					<dim>-1</dim>
				</port>
			</output>
		</layer>
		<layer id="52" name="p2o.pd_op.add.1.0" type="Add" version="opset1">
			<data auto_broadcast="numpy" />
			<input>
				<port id="0" precision="FP32">
					<dim>-1</dim>
					<dim>16</dim>
					<dim>-1</dim>
					<dim>-1</dim>
				</port>
				<port id="1" precision="FP32">
					<dim>-1</dim>
					<dim>16</dim>
					<dim>-1</dim>
					<dim>-1</dim>
				</port>
			</input>
			<output>
				<port id="2" precision="FP32" names="Add.3,p2o.pd_op.add.1.0">
					<dim>-1</dim>
					<dim>16</dim>
					<dim>-1</dim>
					<dim>-1</dim>
				</port>
			</output>
		</layer>
		<layer id="53" name="Multiply_7575" type="Const" version="opset1">
			<data element_type="f32" shape="40, 16, 1, 1" offset="13288" size="2560" />
			<output>
				<port id="0" precision="FP32">
					<dim>40</dim>
					<dim>16</dim>
					<dim>1</dim>
					<dim>1</dim>
				</port>
			</output>
		</layer>
		<layer id="54" name="Multiply_7260" type="Convolution" version="opset1">
			<data strides="1, 1" dilations="1, 1" pads_begin="0, 0" pads_end="0, 0" auto_pad="explicit" />
			<input>
				<port id="0" precision="FP32">
					<dim>-1</dim>
					<dim>16</dim>
					<dim>-1</dim>
					<dim>-1</dim>
				</port>
				<port id="1" precision="FP32">
					<dim>40</dim>
					<dim>16</dim>
					<dim>1</dim>
					<dim>1</dim>
				</port>
			</input>
			<output>
				<port id="2" precision="FP32">
					<dim>-1</dim>
					<dim>40</dim>
					<dim>-1</dim>
					<dim>-1</dim>
				</port>
			</output>
		</layer>
		<layer id="55" name="Constant_7265" type="Const" version="opset1">
			<data element_type="f32" shape="1, 40, 1, 1" offset="15848" size="160" />
			<output>
				<port id="0" precision="FP32">
					<dim>1</dim>
					<dim>40</dim>
					<dim>1</dim>
					<dim>1</dim>
				</port>
			</output>
		</layer>
		<layer id="56" name="BatchNormalization.10" type="Add" version="opset1">
			<data auto_broadcast="numpy" />
			<input>
				<port id="0" precision="FP32">
					<dim>-1</dim>
					<dim>40</dim>
					<dim>-1</dim>
					<dim>-1</dim>
				</port>
				<port id="1" precision="FP32">
					<dim>1</dim>
					<dim>40</dim>
					<dim>1</dim>
					<dim>1</dim>
				</port>
			</input>
			<output>
				<port id="2" precision="FP32" names="p2o.pd_op.batch_norm_.10.0">
					<dim>-1</dim>
					<dim>40</dim>
					<dim>-1</dim>
					<dim>-1</dim>
				</port>
			</output>
		</layer>
		<layer id="57" name="Relu.6" type="ReLU" version="opset1">
			<input>
				<port id="0" precision="FP32">
					<dim>-1</dim>
					<dim>40</dim>
					<dim>-1</dim>
					<dim>-1</dim>
				</port>
			</input>
			<output>
				<port id="1" precision="FP32" names="p2o.pd_op.relu.6.0">
					<dim>-1</dim>
					<dim>40</dim>
					<dim>-1</dim>
					<dim>-1</dim>
				</port>
			</output>
		</layer>
		<layer id="58" name="Multiply_7579" type="Const" version="opset1">
			<data element_type="f32" shape="40, 1, 1, 5, 5" offset="16008" size="4000" />
			<output>
				<port id="0" precision="FP32">
					<dim>40</dim>
					<dim>1</dim>
					<dim>1</dim>
					<dim>5</dim>
					<dim>5</dim>
				</port>
			</output>
		</layer>
		<layer id="59" name="Multiply_7267" type="GroupConvolution" version="opset1">
			<data strides="2, 2" pads_begin="2, 2" pads_end="2, 2" dilations="1, 1" auto_pad="explicit" />
			<input>
				<port id="0" precision="FP32">
					<dim>-1</dim>
					<dim>40</dim>
					<dim>-1</dim>
					<dim>-1</dim>
				</port>
				<port id="1" precision="FP32">
					<dim>40</dim>
					<dim>1</dim>
					<dim>1</dim>
					<dim>5</dim>
					<dim>5</dim>
				</port>
			</input>
			<output>
				<port id="2" precision="FP32" names="p2o.pd_op.depthwise_conv2d.3.0">
					<dim>-1</dim>
					<dim>40</dim>
					<dim>-1</dim>
					<dim>-1</dim>
				</port>
			</output>
		</layer>
		<layer id="60" name="Constant_7272" type="Const" version="opset1">
			<data element_type="f32" shape="1, 40, 1, 1" offset="20008" size="160" />
			<output>
				<port id="0" precision="FP32">
					<dim>1</dim>
					<dim>40</dim>
					<dim>1</dim>
					<dim>1</dim>
				</port>
			</output>
		</layer>
		<layer id="61" name="BatchNormalization.11" type="Add" version="opset1">
			<data auto_broadcast="numpy" />
			<input>
				<port id="0" precision="FP32">
					<dim>-1</dim>
					<dim>40</dim>
					<dim>-1</dim>
					<dim>-1</dim>
				</port>
				<port id="1" precision="FP32">
					<dim>1</dim>
					<dim>40</dim>
					<dim>1</dim>
					<dim>1</dim>
				</port>
			</input>
			<output>
				<port id="2" precision="FP32" names="p2o.pd_op.batch_norm_.11.0">
					<dim>-1</dim>
					<dim>40</dim>
					<dim>-1</dim>
					<dim>-1</dim>
				</port>
			</output>
		</layer>
		<layer id="62" name="Relu.7" type="ReLU" version="opset1">
			<input>
				<port id="0" precision="FP32">
					<dim>-1</dim>
					<dim>40</dim>
					<dim>-1</dim>
					<dim>-1</dim>
				</port>
			</input>
			<output>
				<port id="1" precision="FP32" names="p2o.pd_op.relu.7.0">
					<dim>-1</dim>
					<dim>40</dim>
					<dim>-1</dim>
					<dim>-1</dim>
				</port>
			</output>
		</layer>
		<layer id="63" name="Multiply_7582" type="Const" version="opset1">
			<data element_type="f32" shape="24, 40, 1, 1" offset="20168" size="3840" />
			<output>
				<port id="0" precision="FP32">
					<dim>24</dim>
					<dim>40</dim>
					<dim>1</dim>
					<dim>1</dim>
				</port>
			</output>
		</layer>
		<layer id="64" name="Multiply_7274" type="Convolution" version="opset1">
			<data strides="1, 1" dilations="1, 1" pads_begin="0, 0" pads_end="0, 0" auto_pad="explicit" />
			<input>
				<port id="0" precision="FP32">
					<dim>-1</dim>
					<dim>40</dim>
					<dim>-1</dim>
					<dim>-1</dim>
				</port>
				<port id="1" precision="FP32">
					<dim>24</dim>
					<dim>40</dim>
					<dim>1</dim>
					<dim>1</dim>
				</port>
			</input>
			<output>
				<port id="2" precision="FP32">
					<dim>-1</dim>
					<dim>24</dim>
					<dim>-1</dim>
					<dim>-1</dim>
				</port>
			</output>
		</layer>
		<layer id="65" name="Constant_7279" type="Const" version="opset1">
			<data element_type="f32" shape="1, 24, 1, 1" offset="24008" size="96" />
			<output>
				<port id="0" precision="FP32">
					<dim>1</dim>
					<dim>24</dim>
					<dim>1</dim>
					<dim>1</dim>
				</port>
			</output>
		</layer>
		<layer id="66" name="BatchNormalization.12" type="Add" version="opset1">
			<data auto_broadcast="numpy" />
			<input>
				<port id="0" precision="FP32">
					<dim>-1</dim>
					<dim>24</dim>
					<dim>-1</dim>
					<dim>-1</dim>
				</port>
				<port id="1" precision="FP32">
					<dim>1</dim>
					<dim>24</dim>
					<dim>1</dim>
					<dim>1</dim>
				</port>
			</input>
			<output>
				<port id="2" precision="FP32" names="p2o.pd_op.batch_norm_.12.0">
					<dim>-1</dim>
					<dim>24</dim>
					<dim>-1</dim>
					<dim>-1</dim>
				</port>
			</output>
		</layer>
		<layer id="67" name="Multiply_7586" type="Const" version="opset1">
			<data element_type="f32" shape="64, 24, 1, 1" offset="24104" size="6144" />
			<output>
				<port id="0" precision="FP32">
					<dim>64</dim>
					<dim>24</dim>
					<dim>1</dim>
					<dim>1</dim>
				</port>
			</output>
		</layer>
		<layer id="68" name="Multiply_7281" type="Convolution" version="opset1">
			<data strides="1, 1" dilations="1, 1" pads_begin="0, 0" pads_end="0, 0" auto_pad="explicit" />
			<input>
				<port id="0" precision="FP32">
					<dim>-1</dim>
					<dim>24</dim>
					<dim>-1</dim>
					<dim>-1</dim>
				</port>
				<port id="1" precision="FP32">
					<dim>64</dim>
					<dim>24</dim>
					<dim>1</dim>
					<dim>1</dim>
				</port>
			</input>
			<output>
				<port id="2" precision="FP32">
					<dim>-1</dim>
					<dim>64</dim>
					<dim>-1</dim>
					<dim>-1</dim>
				</port>
			</output>
		</layer>
		<layer id="69" name="Constant_7286" type="Const" version="opset1">
			<data element_type="f32" shape="1, 64, 1, 1" offset="30248" size="256" />
			<output>
				<port id="0" precision="FP32">
					<dim>1</dim>
					<dim>64</dim>
					<dim>1</dim>
					<dim>1</dim>
				</port>
			</output>
		</layer>
		<layer id="70" name="BatchNormalization.13" type="Add" version="opset1">
			<data auto_broadcast="numpy" />
			<input>
				<port id="0" precision="FP32">
					<dim>-1</dim>
					<dim>64</dim>
					<dim>-1</dim>
					<dim>-1</dim>
				</port>
				<port id="1" precision="FP32">
					<dim>1</dim>
					<dim>64</dim>
					<dim>1</dim>
					<dim>1</dim>
				</port>
			</input>
			<output>
				<port id="2" precision="FP32" names="p2o.pd_op.batch_norm_.13.0">
					<dim>-1</dim>
					<dim>64</dim>
					<dim>-1</dim>
					<dim>-1</dim>
				</port>
			</output>
		</layer>
		<layer id="71" name="Relu.8" type="ReLU" version="opset1">
			<input>
				<port id="0" precision="FP32">
					<dim>-1</dim>
					<dim>64</dim>
					<dim>-1</dim>
					<dim>-1</dim>
				</port>
			</input>
			<output>
				<port id="1" precision="FP32" names="p2o.pd_op.relu.8.0">
					<dim>-1</dim>
					<dim>64</dim>
					<dim>-1</dim>
					<dim>-1</dim>
				</port>
			</output>
		</layer>
		<layer id="72" name="Multiply_7590" type="Const" version="opset1">
			<data element_type="f32" shape="64, 1, 1, 5, 5" offset="30504" size="6400" />
			<output>
				<port id="0" precision="FP32">
					<dim>64</dim>
					<dim>1</dim>
					<dim>1</dim>
					<dim>5</dim>
					<dim>5</dim>
				</port>
			</output>
		</layer>
		<layer id="73" name="Multiply_7288" type="GroupConvolution" version="opset1">
			<data strides="1, 1" pads_begin="2, 2" pads_end="2, 2" dilations="1, 1" auto_pad="explicit" />
			<input>
				<port id="0" precision="FP32">
					<dim>-1</dim>
					<dim>64</dim>
					<dim>-1</dim>
					<dim>-1</dim>
				</port>
				<port id="1" precision="FP32">
					<dim>64</dim>
					<dim>1</dim>
					<dim>1</dim>
					<dim>5</dim>
					<dim>5</dim>
				</port>
			</input>
			<output>
				<port id="2" precision="FP32" names="p2o.pd_op.depthwise_conv2d.4.0">
					<dim>-1</dim>
					<dim>64</dim>
					<dim>-1</dim>
					<dim>-1</dim>
				</port>
			</output>
		</layer>
		<layer id="74" name="Constant_7293" type="Const" version="opset1">
			<data element_type="f32" shape="1, 64, 1, 1" offset="36904" size="256" />
			<output>
				<port id="0" precision="FP32">
					<dim>1</dim>
					<dim>64</dim>
					<dim>1</dim>
					<dim>1</dim>
				</port>
			</output>
		</layer>
		<layer id="75" name="BatchNormalization.14" type="Add" version="opset1">
			<data auto_broadcast="numpy" />
			<input>
				<port id="0" precision="FP32">
					<dim>-1</dim>
					<dim>64</dim>
					<dim>-1</dim>
					<dim>-1</dim>
				</port>
				<port id="1" precision="FP32">
					<dim>1</dim>
					<dim>64</dim>
					<dim>1</dim>
					<dim>1</dim>
				</port>
			</input>
			<output>
				<port id="2" precision="FP32" names="p2o.pd_op.batch_norm_.14.0">
					<dim>-1</dim>
					<dim>64</dim>
					<dim>-1</dim>
					<dim>-1</dim>
				</port>
			</output>
		</layer>
		<layer id="76" name="Relu.9" type="ReLU" version="opset1">
			<input>
				<port id="0" precision="FP32">
					<dim>-1</dim>
					<dim>64</dim>
					<dim>-1</dim>
					<dim>-1</dim>
				</port>
			</input>
			<output>
				<port id="1" precision="FP32" names="p2o.pd_op.relu.9.0">
					<dim>-1</dim>
					<dim>64</dim>
					<dim>-1</dim>
					<dim>-1</dim>
				</port>
			</output>
		</layer>
		<layer id="77" name="Multiply_7593" type="Const" version="opset1">
			<data element_type="f32" shape="24, 64, 1, 1" offset="37160" size="6144" />
			<output>
				<port id="0" precision="FP32">
					<dim>24</dim>
					<dim>64</dim>
					<dim>1</dim>
					<dim>1</dim>
				</port>
			</output>
		</layer>
		<layer id="78" name="Multiply_7295" type="Convolution" version="opset1">
			<data strides="1, 1" dilations="1, 1" pads_begin="0, 0" pads_end="0, 0" auto_pad="explicit" />
			<input>
				<port id="0" precision="FP32">
					<dim>-1</dim>
					<dim>64</dim>
					<dim>-1</dim>
					<dim>-1</dim>
				</port>
				<port id="1" precision="FP32">
					<dim>24</dim>
					<dim>64</dim>
					<dim>1</dim>
					<dim>1</dim>
				</port>
			</input>
			<output>
				<port id="2" precision="FP32">
					<dim>-1</dim>
					<dim>24</dim>
					<dim>-1</dim>
					<dim>-1</dim>
				</port>
			</output>
		</layer>
		<layer id="79" name="Constant_7300" type="Const" version="opset1">
			<data element_type="f32" shape="1, 24, 1, 1" offset="43304" size="96" />
			<output>
				<port id="0" precision="FP32">
					<dim>1</dim>
					<dim>24</dim>
					<dim>1</dim>
					<dim>1</dim>
				</port>
			</output>
		</layer>
		<layer id="80" name="BatchNormalization.15" type="Add" version="opset1">
			<data auto_broadcast="numpy" />
			<input>
				<port id="0" precision="FP32">
					<dim>-1</dim>
					<dim>24</dim>
					<dim>-1</dim>
					<dim>-1</dim>
				</port>
				<port id="1" precision="FP32">
					<dim>1</dim>
					<dim>24</dim>
					<dim>1</dim>
					<dim>1</dim>
				</port>
			</input>
			<output>
				<port id="2" precision="FP32" names="p2o.pd_op.batch_norm_.15.0">
					<dim>-1</dim>
					<dim>24</dim>
					<dim>-1</dim>
					<dim>-1</dim>
				</port>
			</output>
		</layer>
		<layer id="81" name="p2o.pd_op.add.2.0" type="Add" version="opset1">
			<data auto_broadcast="numpy" />
			<input>
				<port id="0" precision="FP32">
					<dim>-1</dim>
					<dim>24</dim>
					<dim>-1</dim>
					<dim>-1</dim>
				</port>
				<port id="1" precision="FP32">
					<dim>-1</dim>
					<dim>24</dim>
					<dim>-1</dim>
					<dim>-1</dim>
				</port>
			</input>
			<output>
				<port id="2" precision="FP32" names="Add.5,p2o.pd_op.add.2.0">
					<dim>-1</dim>
					<dim>24</dim>
					<dim>-1</dim>
					<dim>-1</dim>
				</port>
			</output>
		</layer>
		<layer id="82" name="Multiply_7597" type="Const" version="opset1">
			<data element_type="f32" shape="64, 24, 1, 1" offset="43400" size="6144" />
			<output>
				<port id="0" precision="FP32">
					<dim>64</dim>
					<dim>24</dim>
					<dim>1</dim>
					<dim>1</dim>
				</port>
			</output>
		</layer>
		<layer id="83" name="Multiply_7302" type="Convolution" version="opset1">
			<data strides="1, 1" dilations="1, 1" pads_begin="0, 0" pads_end="0, 0" auto_pad="explicit" />
			<input>
				<port id="0" precision="FP32">
					<dim>-1</dim>
					<dim>24</dim>
					<dim>-1</dim>
					<dim>-1</dim>
				</port>
				<port id="1" precision="FP32">
					<dim>64</dim>
					<dim>24</dim>
					<dim>1</dim>
					<dim>1</dim>
				</port>
			</input>
			<output>
				<port id="2" precision="FP32">
					<dim>-1</dim>
					<dim>64</dim>
					<dim>-1</dim>
					<dim>-1</dim>
				</port>
			</output>
		</layer>
		<layer id="84" name="Constant_7307" type="Const" version="opset1">
			<data element_type="f32" shape="1, 64, 1, 1" offset="49544" size="256" />
			<output>
				<port id="0" precision="FP32">
					<dim>1</dim>
					<dim>64</dim>
					<dim>1</dim>
					<dim>1</dim>
				</port>
			</output>
		</layer>
		<layer id="85" name="BatchNormalization.16" type="Add" version="opset1">
			<data auto_broadcast="numpy" />
			<input>
				<port id="0" precision="FP32">
					<dim>-1</dim>
					<dim>64</dim>
					<dim>-1</dim>
					<dim>-1</dim>
				</port>
				<port id="1" precision="FP32">
					<dim>1</dim>
					<dim>64</dim>
					<dim>1</dim>
					<dim>1</dim>
				</port>
			</input>
			<output>
				<port id="2" precision="FP32" names="p2o.pd_op.batch_norm_.16.0">
					<dim>-1</dim>
					<dim>64</dim>
					<dim>-1</dim>
					<dim>-1</dim>
				</port>
			</output>
		</layer>
		<layer id="86" name="Relu.10" type="ReLU" version="opset1">
			<input>
				<port id="0" precision="FP32">
					<dim>-1</dim>
					<dim>64</dim>
					<dim>-1</dim>
					<dim>-1</dim>
				</port>
			</input>
			<output>
				<port id="1" precision="FP32" names="p2o.pd_op.relu.10.0">
					<dim>-1</dim>
					<dim>64</dim>
					<dim>-1</dim>
					<dim>-1</dim>
				</port>
			</output>
		</layer>
		<layer id="87" name="Multiply_7601" type="Const" version="opset1">
			<data element_type="f32" shape="64, 1, 1, 5, 5" offset="49800" size="6400" />
			<output>
				<port id="0" precision="FP32">
					<dim>64</dim>
					<dim>1</dim>
					<dim>1</dim>
					<dim>5</dim>
					<dim>5</dim>
				</port>
			</output>
		</layer>
		<layer id="88" name="Multiply_7309" type="GroupConvolution" version="opset1">
			<data strides="1, 1" pads_begin="2, 2" pads_end="2, 2" dilations="1, 1" auto_pad="explicit" />
			<input>
				<port id="0" precision="FP32">
					<dim>-1</dim>
					<dim>64</dim>
					<dim>-1</dim>
					<dim>-1</dim>
				</port>
				<port id="1" precision="FP32">
					<dim>64</dim>
					<dim>1</dim>
					<dim>1</dim>
					<dim>5</dim>
					<dim>5</dim>
				</port>
			</input>
			<output>
				<port id="2" precision="FP32" names="p2o.pd_op.depthwise_conv2d.5.0">
					<dim>-1</dim>
					<dim>64</dim>
					<dim>-1</dim>
					<dim>-1</dim>
				</port>
			</output>
		</layer>
		<layer id="89" name="Constant_7314" type="Const" version="opset1">
			<data element_type="f32" shape="1, 64, 1, 1" offset="56200" size="256" />
			<output>
				<port id="0" precision="FP32">
					<dim>1</dim>
					<dim>64</dim>
					<dim>1</dim>
					<dim>1</dim>
				</port>
			</output>
		</layer>
		<layer id="90" name="BatchNormalization.17" type="Add" version="opset1">
			<data auto_broadcast="numpy" />
			<input>
				<port id="0" precision="FP32">
					<dim>-1</dim>
					<dim>64</dim>
					<dim>-1</dim>
					<dim>-1</dim>
				</port>
				<port id="1" precision="FP32">
					<dim>1</dim>
					<dim>64</dim>
					<dim>1</dim>
					<dim>1</dim>
				</port>
			</input>
			<output>
				<port id="2" precision="FP32" names="p2o.pd_op.batch_norm_.17.0">
					<dim>-1</dim>
					<dim>64</dim>
					<dim>-1</dim>
					<dim>-1</dim>
				</port>
			</output>
		</layer>
		<layer id="91" name="Relu.11" type="ReLU" version="opset1">
			<input>
				<port id="0" precision="FP32">
					<dim>-1</dim>
					<dim>64</dim>
					<dim>-1</dim>
					<dim>-1</dim>
				</port>
			</input>
			<output>
				<port id="1" precision="FP32" names="p2o.pd_op.relu.11.0">
					<dim>-1</dim>
					<dim>64</dim>
					<dim>-1</dim>
					<dim>-1</dim>
				</port>
			</output>
		</layer>
		<layer id="92" name="Multiply_7604" type="Const" version="opset1">
			<data element_type="f32" shape="24, 64, 1, 1" offset="56456" size="6144" />
			<output>
				<port id="0" precision="FP32">
					<dim>24</dim>
					<dim>64</dim>
					<dim>1</dim>
					<dim>1</dim>
				</port>
			</output>
		</layer>
		<layer id="93" name="Multiply_7316" type="Convolution" version="opset1">
			<data strides="1, 1" dilations="1, 1" pads_begin="0, 0" pads_end="0, 0" auto_pad="explicit" />
			<input>
				<port id="0" precision="FP32">
					<dim>-1</dim>
					<dim>64</dim>
					<dim>-1</dim>
					<dim>-1</dim>
				</port>
				<port id="1" precision="FP32">
					<dim>24</dim>
					<dim>64</dim>
					<dim>1</dim>
					<dim>1</dim>
				</port>
			</input>
			<output>
				<port id="2" precision="FP32">
					<dim>-1</dim>
					<dim>24</dim>
					<dim>-1</dim>
					<dim>-1</dim>
				</port>
			</output>
		</layer>
		<layer id="94" name="Constant_7321" type="Const" version="opset1">
			<data element_type="f32" shape="1, 24, 1, 1" offset="62600" size="96" />
			<output>
				<port id="0" precision="FP32">
					<dim>1</dim>
					<dim>24</dim>
					<dim>1</dim>
					<dim>1</dim>
				</port>
			</output>
		</layer>
		<layer id="95" name="BatchNormalization.18" type="Add" version="opset1">
			<data auto_broadcast="numpy" />
			<input>
				<port id="0" precision="FP32">
					<dim>-1</dim>
					<dim>24</dim>
					<dim>-1</dim>
					<dim>-1</dim>
				</port>
				<port id="1" precision="FP32">
					<dim>1</dim>
					<dim>24</dim>
					<dim>1</dim>
					<dim>1</dim>
				</port>
			</input>
			<output>
				<port id="2" precision="FP32" names="p2o.pd_op.batch_norm_.18.0">
					<dim>-1</dim>
					<dim>24</dim>
					<dim>-1</dim>
					<dim>-1</dim>
				</port>
			</output>
		</layer>
		<layer id="96" name="p2o.pd_op.add.3.0" type="Add" version="opset1">
			<data auto_broadcast="numpy" />
			<input>
				<port id="0" precision="FP32">
					<dim>-1</dim>
					<dim>24</dim>
					<dim>-1</dim>
					<dim>-1</dim>
				</port>
				<port id="1" precision="FP32">
					<dim>-1</dim>
					<dim>24</dim>
					<dim>-1</dim>
					<dim>-1</dim>
				</port>
			</input>
			<output>
				<port id="2" precision="FP32" names="Add.7,p2o.pd_op.add.3.0">
					<dim>-1</dim>
					<dim>24</dim>
					<dim>-1</dim>
					<dim>-1</dim>
				</port>
			</output>
		</layer>
		<layer id="97" name="Multiply_7608" type="Const" version="opset1">
			<data element_type="f32" shape="120, 24, 1, 1" offset="62696" size="11520" />
			<output>
				<port id="0" precision="FP32">
					<dim>120</dim>
					<dim>24</dim>
					<dim>1</dim>
					<dim>1</dim>
				</port>
			</output>
		</layer>
		<layer id="98" name="Multiply_7323" type="Convolution" version="opset1">
			<data strides="1, 1" dilations="1, 1" pads_begin="0, 0" pads_end="0, 0" auto_pad="explicit" />
			<input>
				<port id="0" precision="FP32">
					<dim>-1</dim>
					<dim>24</dim>
					<dim>-1</dim>
					<dim>-1</dim>
				</port>
				<port id="1" precision="FP32">
					<dim>120</dim>
					<dim>24</dim>
					<dim>1</dim>
					<dim>1</dim>
				</port>
			</input>
			<output>
				<port id="2" precision="FP32">
					<dim>-1</dim>
					<dim>120</dim>
					<dim>-1</dim>
					<dim>-1</dim>
				</port>
			</output>
		</layer>
		<layer id="99" name="Constant_7328" type="Const" version="opset1">
			<data element_type="f32" shape="1, 120, 1, 1" offset="74216" size="480" />
			<output>
				<port id="0" precision="FP32">
					<dim>1</dim>
					<dim>120</dim>
					<dim>1</dim>
					<dim>1</dim>
				</port>
			</output>
		</layer>
		<layer id="100" name="BatchNormalization.19" type="Add" version="opset1">
			<data auto_broadcast="numpy" />
			<input>
				<port id="0" precision="FP32">
					<dim>-1</dim>
					<dim>120</dim>
					<dim>-1</dim>
					<dim>-1</dim>
				</port>
				<port id="1" precision="FP32">
					<dim>1</dim>
					<dim>120</dim>
					<dim>1</dim>
					<dim>1</dim>
				</port>
			</input>
			<output>
				<port id="2" precision="FP32" names="p2o.pd_op.batch_norm_.19.0">
					<dim>-1</dim>
					<dim>120</dim>
					<dim>-1</dim>
					<dim>-1</dim>
				</port>
			</output>
		</layer>
		<layer id="101" name="Constant_658" type="Const" version="opset1">
			<data element_type="f32" shape="" offset="896" size="4" />
			<output>
				<port id="0" precision="FP32" />
			</output>
		</layer>
		<layer id="102" name="Constant_659" type="Const" version="opset1">
			<data element_type="f32" shape="" offset="900" size="4" />
			<output>
				<port id="0" precision="FP32" />
			</output>
		</layer>
		<layer id="103" name="HardSigmoid.2" type="HardSigmoid" version="opset1">
			<input>
				<port id="0" precision="FP32">
					<dim>-1</dim>
					<dim>120</dim>
					<dim>-1</dim>
					<dim>-1</dim>
				</port>
				<port id="1" precision="FP32" />
				<port id="2" precision="FP32" />
			</input>
			<output>
				<port id="3" precision="FP32" names="HardSigmoid.3">
					<dim>-1</dim>
					<dim>120</dim>
					<dim>-1</dim>
					<dim>-1</dim>
				</port>
			</output>
		</layer>
		<layer id="104" name="Mul.1" type="Multiply" version="opset1">
			<data auto_broadcast="numpy" />
			<input>
				<port id="0" precision="FP32">
					<dim>-1</dim>
					<dim>120</dim>
					<dim>-1</dim>
					<dim>-1</dim>
				</port>
				<port id="1" precision="FP32">
					<dim>-1</dim>
					<dim>120</dim>
					<dim>-1</dim>
					<dim>-1</dim>
				</port>
			</input>
			<output>
				<port id="2" precision="FP32" names="p2o.pd_op.hardswish.1.0">
					<dim>-1</dim>
					<dim>120</dim>
					<dim>-1</dim>
					<dim>-1</dim>
				</port>
			</output>
		</layer>
		<layer id="105" name="Multiply_7612" type="Const" version="opset1">
			<data element_type="f32" shape="120, 1, 1, 3, 3" offset="74696" size="4320" />
			<output>
				<port id="0" precision="FP32">
					<dim>120</dim>
					<dim>1</dim>
					<dim>1</dim>
					<dim>3</dim>
					<dim>3</dim>
				</port>
			</output>
		</layer>
		<layer id="106" name="Multiply_7330" type="GroupConvolution" version="opset1">
			<data strides="2, 2" pads_begin="1, 1" pads_end="1, 1" dilations="1, 1" auto_pad="explicit" />
			<input>
				<port id="0" precision="FP32">
					<dim>-1</dim>
					<dim>120</dim>
					<dim>-1</dim>
					<dim>-1</dim>
				</port>
				<port id="1" precision="FP32">
					<dim>120</dim>
					<dim>1</dim>
					<dim>1</dim>
					<dim>3</dim>
					<dim>3</dim>
				</port>
			</input>
			<output>
				<port id="2" precision="FP32" names="p2o.pd_op.depthwise_conv2d.6.0">
					<dim>-1</dim>
					<dim>120</dim>
					<dim>-1</dim>
					<dim>-1</dim>
				</port>
			</output>
		</layer>
		<layer id="107" name="Constant_7335" type="Const" version="opset1">
			<data element_type="f32" shape="1, 120, 1, 1" offset="79016" size="480" />
			<output>
				<port id="0" precision="FP32">
					<dim>1</dim>
					<dim>120</dim>
					<dim>1</dim>
					<dim>1</dim>
				</port>
			</output>
		</layer>
		<layer id="108" name="BatchNormalization.20" type="Add" version="opset1">
			<data auto_broadcast="numpy" />
			<input>
				<port id="0" precision="FP32">
					<dim>-1</dim>
					<dim>120</dim>
					<dim>-1</dim>
					<dim>-1</dim>
				</port>
				<port id="1" precision="FP32">
					<dim>1</dim>
					<dim>120</dim>
					<dim>1</dim>
					<dim>1</dim>
				</port>
			</input>
			<output>
				<port id="2" precision="FP32" names="p2o.pd_op.batch_norm_.20.0">
					<dim>-1</dim>
					<dim>120</dim>
					<dim>-1</dim>
					<dim>-1</dim>
				</port>
			</output>
		</layer>
		<layer id="109" name="Constant_711" type="Const" version="opset1">
			<data element_type="f32" shape="" offset="896" size="4" />
			<output>
				<port id="0" precision="FP32" />
			</output>
		</layer>
		<layer id="110" name="Constant_712" type="Const" version="opset1">
			<data element_type="f32" shape="" offset="900" size="4" />
			<output>
				<port id="0" precision="FP32" />
			</output>
		</layer>
		<layer id="111" name="HardSigmoid.4" type="HardSigmoid" version="opset1">
			<input>
				<port id="0" precision="FP32">
					<dim>-1</dim>
					<dim>120</dim>
					<dim>-1</dim>
					<dim>-1</dim>
				</port>
				<port id="1" precision="FP32" />
				<port id="2" precision="FP32" />
			</input>
			<output>
				<port id="3" precision="FP32" names="HardSigmoid.5">
					<dim>-1</dim>
					<dim>120</dim>
					<dim>-1</dim>
					<dim>-1</dim>
				</port>
			</output>
		</layer>
		<layer id="112" name="Mul.2" type="Multiply" version="opset1">
			<data auto_broadcast="numpy" />
			<input>
				<port id="0" precision="FP32">
					<dim>-1</dim>
					<dim>120</dim>
					<dim>-1</dim>
					<dim>-1</dim>
				</port>
				<port id="1" precision="FP32">
					<dim>-1</dim>
					<dim>120</dim>
					<dim>-1</dim>
					<dim>-1</dim>
				</port>
			</input>
			<output>
				<port id="2" precision="FP32" names="p2o.pd_op.hardswish.2.0">
					<dim>-1</dim>
					<dim>120</dim>
					<dim>-1</dim>
					<dim>-1</dim>
				</port>
			</output>
		</layer>
		<layer id="113" name="Multiply_7615" type="Const" version="opset1">
			<data element_type="f32" shape="40, 120, 1, 1" offset="79496" size="19200" />
			<output>
				<port id="0" precision="FP32">
					<dim>40</dim>
					<dim>120</dim>
					<dim>1</dim>
					<dim>1</dim>
				</port>
			</output>
		</layer>
		<layer id="114" name="Multiply_7337" type="Convolution" version="opset1">
			<data strides="1, 1" dilations="1, 1" pads_begin="0, 0" pads_end="0, 0" auto_pad="explicit" />
			<input>
				<port id="0" precision="FP32">
					<dim>-1</dim>
					<dim>120</dim>
					<dim>-1</dim>
					<dim>-1</dim>
				</port>
				<port id="1" precision="FP32">
					<dim>40</dim>
					<dim>120</dim>
					<dim>1</dim>
					<dim>1</dim>
				</port>
			</input>
			<output>
				<port id="2" precision="FP32">
					<dim>-1</dim>
					<dim>40</dim>
					<dim>-1</dim>
					<dim>-1</dim>
				</port>
			</output>
		</layer>
		<layer id="115" name="Constant_7342" type="Const" version="opset1">
			<data element_type="f32" shape="1, 40, 1, 1" offset="98696" size="160" />
			<output>
				<port id="0" precision="FP32">
					<dim>1</dim>
					<dim>40</dim>
					<dim>1</dim>
					<dim>1</dim>
				</port>
			</output>
		</layer>
		<layer id="116" name="BatchNormalization.21" type="Add" version="opset1">
			<data auto_broadcast="numpy" />
			<input>
				<port id="0" precision="FP32">
					<dim>-1</dim>
					<dim>40</dim>
					<dim>-1</dim>
					<dim>-1</dim>
				</port>
				<port id="1" precision="FP32">
					<dim>1</dim>
					<dim>40</dim>
					<dim>1</dim>
					<dim>1</dim>
				</port>
			</input>
			<output>
				<port id="2" precision="FP32" names="p2o.pd_op.batch_norm_.21.0">
					<dim>-1</dim>
					<dim>40</dim>
					<dim>-1</dim>
					<dim>-1</dim>
				</port>
			</output>
		</layer>
		<layer id="117" name="Multiply_7619" type="Const" version="opset1">
			<data element_type="f32" shape="104, 40, 1, 1" offset="98856" size="16640" />
			<output>
				<port id="0" precision="FP32">
					<dim>104</dim>
					<dim>40</dim>
					<dim>1</dim>
					<dim>1</dim>
				</port>
			</output>
		</layer>
		<layer id="118" name="Multiply_7344" type="Convolution" version="opset1">
			<data strides="1, 1" dilations="1, 1" pads_begin="0, 0" pads_end="0, 0" auto_pad="explicit" />
			<input>
				<port id="0" precision="FP32">
					<dim>-1</dim>
					<dim>40</dim>
					<dim>-1</dim>
					<dim>-1</dim>
				</port>
				<port id="1" precision="FP32">
					<dim>104</dim>
					<dim>40</dim>
					<dim>1</dim>
					<dim>1</dim>
				</port>
			</input>
			<output>
				<port id="2" precision="FP32">
					<dim>-1</dim>
					<dim>104</dim>
					<dim>-1</dim>
					<dim>-1</dim>
				</port>
			</output>
		</layer>
		<layer id="119" name="Constant_7349" type="Const" version="opset1">
			<data element_type="f32" shape="1, 104, 1, 1" offset="115496" size="416" />
			<output>
				<port id="0" precision="FP32">
					<dim>1</dim>
					<dim>104</dim>
					<dim>1</dim>
					<dim>1</dim>
				</port>
			</output>
		</layer>
		<layer id="120" name="BatchNormalization.22" type="Add" version="opset1">
			<data auto_broadcast="numpy" />
			<input>
				<port id="0" precision="FP32">
					<dim>-1</dim>
					<dim>104</dim>
					<dim>-1</dim>
					<dim>-1</dim>
				</port>
				<port id="1" precision="FP32">
					<dim>1</dim>
					<dim>104</dim>
					<dim>1</dim>
					<dim>1</dim>
				</port>
			</input>
			<output>
				<port id="2" precision="FP32" names="p2o.pd_op.batch_norm_.22.0">
					<dim>-1</dim>
					<dim>104</dim>
					<dim>-1</dim>
					<dim>-1</dim>
				</port>
			</output>
		</layer>
		<layer id="121" name="Constant_721" type="Const" version="opset1">
			<data element_type="f32" shape="" offset="896" size="4" />
			<output>
				<port id="0" precision="FP32" />
			</output>
		</layer>
		<layer id="122" name="Constant_722" type="Const" version="opset1">
			<data element_type="f32" shape="" offset="900" size="4" />
			<output>
				<port id="0" precision="FP32" />
			</output>
		</layer>
		<layer id="123" name="HardSigmoid.6" type="HardSigmoid" version="opset1">
			<input>
				<port id="0" precision="FP32">
					<dim>-1</dim>
					<dim>104</dim>
					<dim>-1</dim>
					<dim>-1</dim>
				</port>
				<port id="1" precision="FP32" />
				<port id="2" precision="FP32" />
			</input>
			<output>
				<port id="3" precision="FP32" names="HardSigmoid.7">
					<dim>-1</dim>
					<dim>104</dim>
					<dim>-1</dim>
					<dim>-1</dim>
				</port>
			</output>
		</layer>
		<layer id="124" name="Mul.3" type="Multiply" version="opset1">
			<data auto_broadcast="numpy" />
			<input>
				<port id="0" precision="FP32">
					<dim>-1</dim>
					<dim>104</dim>
					<dim>-1</dim>
					<dim>-1</dim>
				</port>
				<port id="1" precision="FP32">
					<dim>-1</dim>
					<dim>104</dim>
					<dim>-1</dim>
					<dim>-1</dim>
				</port>
			</input>
			<output>
				<port id="2" precision="FP32" names="p2o.pd_op.hardswish.3.0">
					<dim>-1</dim>
					<dim>104</dim>
					<dim>-1</dim>
					<dim>-1</dim>
				</port>
			</output>
		</layer>
		<layer id="125" name="Multiply_7623" type="Const" version="opset1">
			<data element_type="f32" shape="104, 1, 1, 3, 3" offset="115912" size="3744" />
			<output>
				<port id="0" precision="FP32">
					<dim>104</dim>
					<dim>1</dim>
					<dim>1</dim>
					<dim>3</dim>
					<dim>3</dim>
				</port>
			</output>
		</layer>
		<layer id="126" name="Multiply_7351" type="GroupConvolution" version="opset1">
			<data strides="1, 1" pads_begin="1, 1" pads_end="1, 1" dilations="1, 1" auto_pad="explicit" />
			<input>
				<port id="0" precision="FP32">
					<dim>-1</dim>
					<dim>104</dim>
					<dim>-1</dim>
					<dim>-1</dim>
				</port>
				<port id="1" precision="FP32">
					<dim>104</dim>
					<dim>1</dim>
					<dim>1</dim>
					<dim>3</dim>
					<dim>3</dim>
				</port>
			</input>
			<output>
				<port id="2" precision="FP32" names="p2o.pd_op.depthwise_conv2d.7.0">
					<dim>-1</dim>
					<dim>104</dim>
					<dim>-1</dim>
					<dim>-1</dim>
				</port>
			</output>
		</layer>
		<layer id="127" name="Constant_7356" type="Const" version="opset1">
			<data element_type="f32" shape="1, 104, 1, 1" offset="119656" size="416" />
			<output>
				<port id="0" precision="FP32">
					<dim>1</dim>
					<dim>104</dim>
					<dim>1</dim>
					<dim>1</dim>
				</port>
			</output>
		</layer>
		<layer id="128" name="BatchNormalization.23" type="Add" version="opset1">
			<data auto_broadcast="numpy" />
			<input>
				<port id="0" precision="FP32">
					<dim>-1</dim>
					<dim>104</dim>
					<dim>-1</dim>
					<dim>-1</dim>
				</port>
				<port id="1" precision="FP32">
					<dim>1</dim>
					<dim>104</dim>
					<dim>1</dim>
					<dim>1</dim>
				</port>
			</input>
			<output>
				<port id="2" precision="FP32" names="p2o.pd_op.batch_norm_.23.0">
					<dim>-1</dim>
					<dim>104</dim>
					<dim>-1</dim>
					<dim>-1</dim>
				</port>
			</output>
		</layer>
		<layer id="129" name="Constant_774" type="Const" version="opset1">
			<data element_type="f32" shape="" offset="896" size="4" />
			<output>
				<port id="0" precision="FP32" />
			</output>
		</layer>
		<layer id="130" name="Constant_775" type="Const" version="opset1">
			<data element_type="f32" shape="" offset="900" size="4" />
			<output>
				<port id="0" precision="FP32" />
			</output>
		</layer>
		<layer id="131" name="HardSigmoid.8" type="HardSigmoid" version="opset1">
			<input>
				<port id="0" precision="FP32">
					<dim>-1</dim>
					<dim>104</dim>
					<dim>-1</dim>
					<dim>-1</dim>
				</port>
				<port id="1" precision="FP32" />
				<port id="2" precision="FP32" />
			</input>
			<output>
				<port id="3" precision="FP32" names="HardSigmoid.9">
					<dim>-1</dim>
					<dim>104</dim>
					<dim>-1</dim>
					<dim>-1</dim>
				</port>
			</output>
		</layer>
		<layer id="132" name="Mul.4" type="Multiply" version="opset1">
			<data auto_broadcast="numpy" />
			<input>
				<port id="0" precision="FP32">
					<dim>-1</dim>
					<dim>104</dim>
					<dim>-1</dim>
					<dim>-1</dim>
				</port>
				<port id="1" precision="FP32">
					<dim>-1</dim>
					<dim>104</dim>
					<dim>-1</dim>
					<dim>-1</dim>
				</port>
			</input>
			<output>
				<port id="2" precision="FP32" names="p2o.pd_op.hardswish.4.0">
					<dim>-1</dim>
					<dim>104</dim>
					<dim>-1</dim>
					<dim>-1</dim>
				</port>
			</output>
		</layer>
		<layer id="133" name="Multiply_7626" type="Const" version="opset1">
			<data element_type="f32" shape="40, 104, 1, 1" offset="120072" size="16640" />
			<output>
				<port id="0" precision="FP32">
					<dim>40</dim>
					<dim>104</dim>
					<dim>1</dim>
					<dim>1</dim>
				</port>
			</output>
		</layer>
		<layer id="134" name="Multiply_7358" type="Convolution" version="opset1">
			<data strides="1, 1" dilations="1, 1" pads_begin="0, 0" pads_end="0, 0" auto_pad="explicit" />
			<input>
				<port id="0" precision="FP32">
					<dim>-1</dim>
					<dim>104</dim>
					<dim>-1</dim>
					<dim>-1</dim>
				</port>
				<port id="1" precision="FP32">
					<dim>40</dim>
					<dim>104</dim>
					<dim>1</dim>
					<dim>1</dim>
				</port>
			</input>
			<output>
				<port id="2" precision="FP32">
					<dim>-1</dim>
					<dim>40</dim>
					<dim>-1</dim>
					<dim>-1</dim>
				</port>
			</output>
		</layer>
		<layer id="135" name="Constant_7363" type="Const" version="opset1">
			<data element_type="f32" shape="1, 40, 1, 1" offset="136712" size="160" />
			<output>
				<port id="0" precision="FP32">
					<dim>1</dim>
					<dim>40</dim>
					<dim>1</dim>
					<dim>1</dim>
				</port>
			</output>
		</layer>
		<layer id="136" name="BatchNormalization.24" type="Add" version="opset1">
			<data auto_broadcast="numpy" />
			<input>
				<port id="0" precision="FP32">
					<dim>-1</dim>
					<dim>40</dim>
					<dim>-1</dim>
					<dim>-1</dim>
				</port>
				<port id="1" precision="FP32">
					<dim>1</dim>
					<dim>40</dim>
					<dim>1</dim>
					<dim>1</dim>
				</port>
			</input>
			<output>
				<port id="2" precision="FP32" names="p2o.pd_op.batch_norm_.24.0">
					<dim>-1</dim>
					<dim>40</dim>
					<dim>-1</dim>
					<dim>-1</dim>
				</port>
			</output>
		</layer>
		<layer id="137" name="p2o.pd_op.add.4.0" type="Add" version="opset1">
			<data auto_broadcast="numpy" />
			<input>
				<port id="0" precision="FP32">
					<dim>-1</dim>
					<dim>40</dim>
					<dim>-1</dim>
					<dim>-1</dim>
				</port>
				<port id="1" precision="FP32">
					<dim>-1</dim>
					<dim>40</dim>
					<dim>-1</dim>
					<dim>-1</dim>
				</port>
			</input>
			<output>
				<port id="2" precision="FP32" names="Add.9,p2o.pd_op.add.4.0">
					<dim>-1</dim>
					<dim>40</dim>
					<dim>-1</dim>
					<dim>-1</dim>
				</port>
			</output>
		</layer>
		<layer id="138" name="Multiply_7630" type="Const" version="opset1">
			<data element_type="f32" shape="96, 40, 1, 1" offset="136872" size="15360" />
			<output>
				<port id="0" precision="FP32">
					<dim>96</dim>
					<dim>40</dim>
					<dim>1</dim>
					<dim>1</dim>
				</port>
			</output>
		</layer>
		<layer id="139" name="Multiply_7365" type="Convolution" version="opset1">
			<data strides="1, 1" dilations="1, 1" pads_begin="0, 0" pads_end="0, 0" auto_pad="explicit" />
			<input>
				<port id="0" precision="FP32">
					<dim>-1</dim>
					<dim>40</dim>
					<dim>-1</dim>
					<dim>-1</dim>
				</port>
				<port id="1" precision="FP32">
					<dim>96</dim>
					<dim>40</dim>
					<dim>1</dim>
					<dim>1</dim>
				</port>
			</input>
			<output>
				<port id="2" precision="FP32">
					<dim>-1</dim>
					<dim>96</dim>
					<dim>-1</dim>
					<dim>-1</dim>
				</port>
			</output>
		</layer>
		<layer id="140" name="Constant_7370" type="Const" version="opset1">
			<data element_type="f32" shape="1, 96, 1, 1" offset="152232" size="384" />
			<output>
				<port id="0" precision="FP32">
					<dim>1</dim>
					<dim>96</dim>
					<dim>1</dim>
					<dim>1</dim>
				</port>
			</output>
		</layer>
		<layer id="141" name="BatchNormalization.25" type="Add" version="opset1">
			<data auto_broadcast="numpy" />
			<input>
				<port id="0" precision="FP32">
					<dim>-1</dim>
					<dim>96</dim>
					<dim>-1</dim>
					<dim>-1</dim>
				</port>
				<port id="1" precision="FP32">
					<dim>1</dim>
					<dim>96</dim>
					<dim>1</dim>
					<dim>1</dim>
				</port>
			</input>
			<output>
				<port id="2" precision="FP32" names="p2o.pd_op.batch_norm_.25.0">
					<dim>-1</dim>
					<dim>96</dim>
					<dim>-1</dim>
					<dim>-1</dim>
				</port>
			</output>
		</layer>
		<layer id="142" name="Constant_785" type="Const" version="opset1">
			<data element_type="f32" shape="" offset="896" size="4" />
			<output>
				<port id="0" precision="FP32" />
			</output>
		</layer>
		<layer id="143" name="Constant_786" type="Const" version="opset1">
			<data element_type="f32" shape="" offset="900" size="4" />
			<output>
				<port id="0" precision="FP32" />
			</output>
		</layer>
		<layer id="144" name="HardSigmoid.10" type="HardSigmoid" version="opset1">
			<input>
				<port id="0" precision="FP32">
					<dim>-1</dim>
					<dim>96</dim>
					<dim>-1</dim>
					<dim>-1</dim>
				</port>
				<port id="1" precision="FP32" />
				<port id="2" precision="FP32" />
			</input>
			<output>
				<port id="3" precision="FP32" names="HardSigmoid.11">
					<dim>-1</dim>
					<dim>96</dim>
					<dim>-1</dim>
					<dim>-1</dim>
				</port>
			</output>
		</layer>
		<layer id="145" name="Mul.5" type="Multiply" version="opset1">
			<data auto_broadcast="numpy" />
			<input>
				<port id="0" precision="FP32">
					<dim>-1</dim>
					<dim>96</dim>
					<dim>-1</dim>
					<dim>-1</dim>
				</port>
				<port id="1" precision="FP32">
					<dim>-1</dim>
					<dim>96</dim>
					<dim>-1</dim>
					<dim>-1</dim>
				</port>
			</input>
			<output>
				<port id="2" precision="FP32" names="p2o.pd_op.hardswish.5.0">
					<dim>-1</dim>
					<dim>96</dim>
					<dim>-1</dim>
					<dim>-1</dim>
				</port>
			</output>
		</layer>
		<layer id="146" name="Multiply_7634" type="Const" version="opset1">
			<data element_type="f32" shape="96, 1, 1, 3, 3" offset="152616" size="3456" />
			<output>
				<port id="0" precision="FP32">
					<dim>96</dim>
					<dim>1</dim>
					<dim>1</dim>
					<dim>3</dim>
					<dim>3</dim>
				</port>
			</output>
		</layer>
		<layer id="147" name="Multiply_7372" type="GroupConvolution" version="opset1">
			<data strides="1, 1" pads_begin="1, 1" pads_end="1, 1" dilations="1, 1" auto_pad="explicit" />
			<input>
				<port id="0" precision="FP32">
					<dim>-1</dim>
					<dim>96</dim>
					<dim>-1</dim>
					<dim>-1</dim>
				</port>
				<port id="1" precision="FP32">
					<dim>96</dim>
					<dim>1</dim>
					<dim>1</dim>
					<dim>3</dim>
					<dim>3</dim>
				</port>
			</input>
			<output>
				<port id="2" precision="FP32" names="p2o.pd_op.depthwise_conv2d.8.0">
					<dim>-1</dim>
					<dim>96</dim>
					<dim>-1</dim>
					<dim>-1</dim>
				</port>
			</output>
		</layer>
		<layer id="148" name="Constant_7377" type="Const" version="opset1">
			<data element_type="f32" shape="1, 96, 1, 1" offset="156072" size="384" />
			<output>
				<port id="0" precision="FP32">
					<dim>1</dim>
					<dim>96</dim>
					<dim>1</dim>
					<dim>1</dim>
				</port>
			</output>
		</layer>
		<layer id="149" name="BatchNormalization.26" type="Add" version="opset1">
			<data auto_broadcast="numpy" />
			<input>
				<port id="0" precision="FP32">
					<dim>-1</dim>
					<dim>96</dim>
					<dim>-1</dim>
					<dim>-1</dim>
				</port>
				<port id="1" precision="FP32">
					<dim>1</dim>
					<dim>96</dim>
					<dim>1</dim>
					<dim>1</dim>
				</port>
			</input>
			<output>
				<port id="2" precision="FP32" names="p2o.pd_op.batch_norm_.26.0">
					<dim>-1</dim>
					<dim>96</dim>
					<dim>-1</dim>
					<dim>-1</dim>
				</port>
			</output>
		</layer>
		<layer id="150" name="Constant_838" type="Const" version="opset1">
			<data element_type="f32" shape="" offset="896" size="4" />
			<output>
				<port id="0" precision="FP32" />
			</output>
		</layer>
		<layer id="151" name="Constant_839" type="Const" version="opset1">
			<data element_type="f32" shape="" offset="900" size="4" />
			<output>
				<port id="0" precision="FP32" />
			</output>
		</layer>
		<layer id="152" name="HardSigmoid.12" type="HardSigmoid" version="opset1">
			<input>
				<port id="0" precision="FP32">
					<dim>-1</dim>
					<dim>96</dim>
					<dim>-1</dim>
					<dim>-1</dim>
				</port>
				<port id="1" precision="FP32" />
				<port id="2" precision="FP32" />
			</input>
			<output>
				<port id="3" precision="FP32" names="HardSigmoid.13">
					<dim>-1</dim>
					<dim>96</dim>
					<dim>-1</dim>
					<dim>-1</dim>
				</port>
			</output>
		</layer>
		<layer id="153" name="Mul.6" type="Multiply" version="opset1">
			<data auto_broadcast="numpy" />
			<input>
				<port id="0" precision="FP32">
					<dim>-1</dim>
					<dim>96</dim>
					<dim>-1</dim>
					<dim>-1</dim>
				</port>
				<port id="1" precision="FP32">
					<dim>-1</dim>
					<dim>96</dim>
					<dim>-1</dim>
					<dim>-1</dim>
				</port>
			</input>
			<output>
				<port id="2" precision="FP32" names="p2o.pd_op.hardswish.6.0">
					<dim>-1</dim>
					<dim>96</dim>
					<dim>-1</dim>
					<dim>-1</dim>
				</port>
			</output>
		</layer>
		<layer id="154" name="Multiply_7637" type="Const" version="opset1">
			<data element_type="f32" shape="40, 96, 1, 1" offset="156456" size="15360" />
			<output>
				<port id="0" precision="FP32">
					<dim>40</dim>
					<dim>96</dim>
					<dim>1</dim>
					<dim>1</dim>
				</port>
			</output>
		</layer>
		<layer id="155" name="Multiply_7379" type="Convolution" version="opset1">
			<data strides="1, 1" dilations="1, 1" pads_begin="0, 0" pads_end="0, 0" auto_pad="explicit" />
			<input>
				<port id="0" precision="FP32">
					<dim>-1</dim>
					<dim>96</dim>
					<dim>-1</dim>
					<dim>-1</dim>
				</port>
				<port id="1" precision="FP32">
					<dim>40</dim>
					<dim>96</dim>
					<dim>1</dim>
					<dim>1</dim>
				</port>
			</input>
			<output>
				<port id="2" precision="FP32">
					<dim>-1</dim>
					<dim>40</dim>
					<dim>-1</dim>
					<dim>-1</dim>
				</port>
			</output>
		</layer>
		<layer id="156" name="Constant_7384" type="Const" version="opset1">
			<data element_type="f32" shape="1, 40, 1, 1" offset="171816" size="160" />
			<output>
				<port id="0" precision="FP32">
					<dim>1</dim>
					<dim>40</dim>
					<dim>1</dim>
					<dim>1</dim>
				</port>
			</output>
		</layer>
		<layer id="157" name="BatchNormalization.27" type="Add" version="opset1">
			<data auto_broadcast="numpy" />
			<input>
				<port id="0" precision="FP32">
					<dim>-1</dim>
					<dim>40</dim>
					<dim>-1</dim>
					<dim>-1</dim>
				</port>
				<port id="1" precision="FP32">
					<dim>1</dim>
					<dim>40</dim>
					<dim>1</dim>
					<dim>1</dim>
				</port>
			</input>
			<output>
				<port id="2" precision="FP32" names="p2o.pd_op.batch_norm_.27.0">
					<dim>-1</dim>
					<dim>40</dim>
					<dim>-1</dim>
					<dim>-1</dim>
				</port>
			</output>
		</layer>
		<layer id="158" name="p2o.pd_op.add.5.0" type="Add" version="opset1">
			<data auto_broadcast="numpy" />
			<input>
				<port id="0" precision="FP32">
					<dim>-1</dim>
					<dim>40</dim>
					<dim>-1</dim>
					<dim>-1</dim>
				</port>
				<port id="1" precision="FP32">
					<dim>-1</dim>
					<dim>40</dim>
					<dim>-1</dim>
					<dim>-1</dim>
				</port>
			</input>
			<output>
				<port id="2" precision="FP32" names="Add.11,p2o.pd_op.add.5.0">
					<dim>-1</dim>
					<dim>40</dim>
					<dim>-1</dim>
					<dim>-1</dim>
				</port>
			</output>
		</layer>
		<layer id="159" name="Multiply_7641" type="Const" version="opset1">
			<data element_type="f32" shape="96, 40, 1, 1" offset="171976" size="15360" />
			<output>
				<port id="0" precision="FP32">
					<dim>96</dim>
					<dim>40</dim>
					<dim>1</dim>
					<dim>1</dim>
				</port>
			</output>
		</layer>
		<layer id="160" name="Multiply_7386" type="Convolution" version="opset1">
			<data strides="1, 1" dilations="1, 1" pads_begin="0, 0" pads_end="0, 0" auto_pad="explicit" />
			<input>
				<port id="0" precision="FP32">
					<dim>-1</dim>
					<dim>40</dim>
					<dim>-1</dim>
					<dim>-1</dim>
				</port>
				<port id="1" precision="FP32">
					<dim>96</dim>
					<dim>40</dim>
					<dim>1</dim>
					<dim>1</dim>
				</port>
			</input>
			<output>
				<port id="2" precision="FP32">
					<dim>-1</dim>
					<dim>96</dim>
					<dim>-1</dim>
					<dim>-1</dim>
				</port>
			</output>
		</layer>
		<layer id="161" name="Constant_7391" type="Const" version="opset1">
			<data element_type="f32" shape="1, 96, 1, 1" offset="187336" size="384" />
			<output>
				<port id="0" precision="FP32">
					<dim>1</dim>
					<dim>96</dim>
					<dim>1</dim>
					<dim>1</dim>
				</port>
			</output>
		</layer>
		<layer id="162" name="BatchNormalization.28" type="Add" version="opset1">
			<data auto_broadcast="numpy" />
			<input>
				<port id="0" precision="FP32">
					<dim>-1</dim>
					<dim>96</dim>
					<dim>-1</dim>
					<dim>-1</dim>
				</port>
				<port id="1" precision="FP32">
					<dim>1</dim>
					<dim>96</dim>
					<dim>1</dim>
					<dim>1</dim>
				</port>
			</input>
			<output>
				<port id="2" precision="FP32" names="p2o.pd_op.batch_norm_.28.0">
					<dim>-1</dim>
					<dim>96</dim>
					<dim>-1</dim>
					<dim>-1</dim>
				</port>
			</output>
		</layer>
		<layer id="163" name="Constant_849" type="Const" version="opset1">
			<data element_type="f32" shape="" offset="896" size="4" />
			<output>
				<port id="0" precision="FP32" />
			</output>
		</layer>
		<layer id="164" name="Constant_850" type="Const" version="opset1">
			<data element_type="f32" shape="" offset="900" size="4" />
			<output>
				<port id="0" precision="FP32" />
			</output>
		</layer>
		<layer id="165" name="HardSigmoid.14" type="HardSigmoid" version="opset1">
			<input>
				<port id="0" precision="FP32">
					<dim>-1</dim>
					<dim>96</dim>
					<dim>-1</dim>
					<dim>-1</dim>
				</port>
				<port id="1" precision="FP32" />
				<port id="2" precision="FP32" />
			</input>
			<output>
				<port id="3" precision="FP32" names="HardSigmoid.15">
					<dim>-1</dim>
					<dim>96</dim>
					<dim>-1</dim>
					<dim>-1</dim>
				</port>
			</output>
		</layer>
		<layer id="166" name="Mul.7" type="Multiply" version="opset1">
			<data auto_broadcast="numpy" />
			<input>
				<port id="0" precision="FP32">
					<dim>-1</dim>
					<dim>96</dim>
					<dim>-1</dim>
					<dim>-1</dim>
				</port>
				<port id="1" precision="FP32">
					<dim>-1</dim>
					<dim>96</dim>
					<dim>-1</dim>
					<dim>-1</dim>
				</port>
			</input>
			<output>
				<port id="2" precision="FP32" names="p2o.pd_op.hardswish.7.0">
					<dim>-1</dim>
					<dim>96</dim>
					<dim>-1</dim>
					<dim>-1</dim>
				</port>
			</output>
		</layer>
		<layer id="167" name="Multiply_7645" type="Const" version="opset1">
			<data element_type="f32" shape="96, 1, 1, 3, 3" offset="187720" size="3456" />
			<output>
				<port id="0" precision="FP32">
					<dim>96</dim>
					<dim>1</dim>
					<dim>1</dim>
					<dim>3</dim>
					<dim>3</dim>
				</port>
			</output>
		</layer>
		<layer id="168" name="Multiply_7393" type="GroupConvolution" version="opset1">
			<data strides="1, 1" pads_begin="1, 1" pads_end="1, 1" dilations="1, 1" auto_pad="explicit" />
			<input>
				<port id="0" precision="FP32">
					<dim>-1</dim>
					<dim>96</dim>
					<dim>-1</dim>
					<dim>-1</dim>
				</port>
				<port id="1" precision="FP32">
					<dim>96</dim>
					<dim>1</dim>
					<dim>1</dim>
					<dim>3</dim>
					<dim>3</dim>
				</port>
			</input>
			<output>
				<port id="2" precision="FP32" names="p2o.pd_op.depthwise_conv2d.9.0">
					<dim>-1</dim>
					<dim>96</dim>
					<dim>-1</dim>
					<dim>-1</dim>
				</port>
			</output>
		</layer>
		<layer id="169" name="Constant_7398" type="Const" version="opset1">
			<data element_type="f32" shape="1, 96, 1, 1" offset="191176" size="384" />
			<output>
				<port id="0" precision="FP32">
					<dim>1</dim>
					<dim>96</dim>
					<dim>1</dim>
					<dim>1</dim>
				</port>
			</output>
		</layer>
		<layer id="170" name="BatchNormalization.29" type="Add" version="opset1">
			<data auto_broadcast="numpy" />
			<input>
				<port id="0" precision="FP32">
					<dim>-1</dim>
					<dim>96</dim>
					<dim>-1</dim>
					<dim>-1</dim>
				</port>
				<port id="1" precision="FP32">
					<dim>1</dim>
					<dim>96</dim>
					<dim>1</dim>
					<dim>1</dim>
				</port>
			</input>
			<output>
				<port id="2" precision="FP32" names="p2o.pd_op.batch_norm_.29.0">
					<dim>-1</dim>
					<dim>96</dim>
					<dim>-1</dim>
					<dim>-1</dim>
				</port>
			</output>
		</layer>
		<layer id="171" name="Constant_902" type="Const" version="opset1">
			<data element_type="f32" shape="" offset="896" size="4" />
			<output>
				<port id="0" precision="FP32" />
			</output>
		</layer>
		<layer id="172" name="Constant_903" type="Const" version="opset1">
			<data element_type="f32" shape="" offset="900" size="4" />
			<output>
				<port id="0" precision="FP32" />
			</output>
		</layer>
		<layer id="173" name="HardSigmoid.16" type="HardSigmoid" version="opset1">
			<input>
				<port id="0" precision="FP32">
					<dim>-1</dim>
					<dim>96</dim>
					<dim>-1</dim>
					<dim>-1</dim>
				</port>
				<port id="1" precision="FP32" />
				<port id="2" precision="FP32" />
			</input>
			<output>
				<port id="3" precision="FP32" names="HardSigmoid.17">
					<dim>-1</dim>
					<dim>96</dim>
					<dim>-1</dim>
					<dim>-1</dim>
				</port>
			</output>
		</layer>
		<layer id="174" name="Mul.8" type="Multiply" version="opset1">
			<data auto_broadcast="numpy" />
			<input>
				<port id="0" precision="FP32">
					<dim>-1</dim>
					<dim>96</dim>
					<dim>-1</dim>
					<dim>-1</dim>
				</port>
				<port id="1" precision="FP32">
					<dim>-1</dim>
					<dim>96</dim>
					<dim>-1</dim>
					<dim>-1</dim>
				</port>
			</input>
			<output>
				<port id="2" precision="FP32" names="p2o.pd_op.hardswish.8.0">
					<dim>-1</dim>
					<dim>96</dim>
					<dim>-1</dim>
					<dim>-1</dim>
				</port>
			</output>
		</layer>
		<layer id="175" name="Multiply_7648" type="Const" version="opset1">
			<data element_type="f32" shape="40, 96, 1, 1" offset="191560" size="15360" />
			<output>
				<port id="0" precision="FP32">
					<dim>40</dim>
					<dim>96</dim>
					<dim>1</dim>
					<dim>1</dim>
				</port>
			</output>
		</layer>
		<layer id="176" name="Multiply_7400" type="Convolution" version="opset1">
			<data strides="1, 1" dilations="1, 1" pads_begin="0, 0" pads_end="0, 0" auto_pad="explicit" />
			<input>
				<port id="0" precision="FP32">
					<dim>-1</dim>
					<dim>96</dim>
					<dim>-1</dim>
					<dim>-1</dim>
				</port>
				<port id="1" precision="FP32">
					<dim>40</dim>
					<dim>96</dim>
					<dim>1</dim>
					<dim>1</dim>
				</port>
			</input>
			<output>
				<port id="2" precision="FP32">
					<dim>-1</dim>
					<dim>40</dim>
					<dim>-1</dim>
					<dim>-1</dim>
				</port>
			</output>
		</layer>
		<layer id="177" name="Constant_7405" type="Const" version="opset1">
			<data element_type="f32" shape="1, 40, 1, 1" offset="206920" size="160" />
			<output>
				<port id="0" precision="FP32">
					<dim>1</dim>
					<dim>40</dim>
					<dim>1</dim>
					<dim>1</dim>
				</port>
			</output>
		</layer>
		<layer id="178" name="BatchNormalization.30" type="Add" version="opset1">
			<data auto_broadcast="numpy" />
			<input>
				<port id="0" precision="FP32">
					<dim>-1</dim>
					<dim>40</dim>
					<dim>-1</dim>
					<dim>-1</dim>
				</port>
				<port id="1" precision="FP32">
					<dim>1</dim>
					<dim>40</dim>
					<dim>1</dim>
					<dim>1</dim>
				</port>
			</input>
			<output>
				<port id="2" precision="FP32" names="p2o.pd_op.batch_norm_.30.0">
					<dim>-1</dim>
					<dim>40</dim>
					<dim>-1</dim>
					<dim>-1</dim>
				</port>
			</output>
		</layer>
		<layer id="179" name="p2o.pd_op.add.6.0" type="Add" version="opset1">
			<data auto_broadcast="numpy" />
			<input>
				<port id="0" precision="FP32">
					<dim>-1</dim>
					<dim>40</dim>
					<dim>-1</dim>
					<dim>-1</dim>
				</port>
				<port id="1" precision="FP32">
					<dim>-1</dim>
					<dim>40</dim>
					<dim>-1</dim>
					<dim>-1</dim>
				</port>
			</input>
			<output>
				<port id="2" precision="FP32" names="Add.13,p2o.pd_op.add.6.0">
					<dim>-1</dim>
					<dim>40</dim>
					<dim>-1</dim>
					<dim>-1</dim>
				</port>
			</output>
		</layer>
		<layer id="180" name="Multiply_7652" type="Const" version="opset1">
			<data element_type="f32" shape="240, 40, 1, 1" offset="207080" size="38400" />
			<output>
				<port id="0" precision="FP32">
					<dim>240</dim>
					<dim>40</dim>
					<dim>1</dim>
					<dim>1</dim>
				</port>
			</output>
		</layer>
		<layer id="181" name="Multiply_7407" type="Convolution" version="opset1">
			<data strides="1, 1" dilations="1, 1" pads_begin="0, 0" pads_end="0, 0" auto_pad="explicit" />
			<input>
				<port id="0" precision="FP32">
					<dim>-1</dim>
					<dim>40</dim>
					<dim>-1</dim>
					<dim>-1</dim>
				</port>
				<port id="1" precision="FP32">
					<dim>240</dim>
					<dim>40</dim>
					<dim>1</dim>
					<dim>1</dim>
				</port>
			</input>
			<output>
				<port id="2" precision="FP32">
					<dim>-1</dim>
					<dim>240</dim>
					<dim>-1</dim>
					<dim>-1</dim>
				</port>
			</output>
		</layer>
		<layer id="182" name="Constant_7412" type="Const" version="opset1">
			<data element_type="f32" shape="1, 240, 1, 1" offset="245480" size="960" />
			<output>
				<port id="0" precision="FP32">
					<dim>1</dim>
					<dim>240</dim>
					<dim>1</dim>
					<dim>1</dim>
				</port>
			</output>
		</layer>
		<layer id="183" name="BatchNormalization.31" type="Add" version="opset1">
			<data auto_broadcast="numpy" />
			<input>
				<port id="0" precision="FP32">
					<dim>-1</dim>
					<dim>240</dim>
					<dim>-1</dim>
					<dim>-1</dim>
				</port>
				<port id="1" precision="FP32">
					<dim>1</dim>
					<dim>240</dim>
					<dim>1</dim>
					<dim>1</dim>
				</port>
			</input>
			<output>
				<port id="2" precision="FP32" names="p2o.pd_op.batch_norm_.31.0">
					<dim>-1</dim>
					<dim>240</dim>
					<dim>-1</dim>
					<dim>-1</dim>
				</port>
			</output>
		</layer>
		<layer id="184" name="Constant_913" type="Const" version="opset1">
			<data element_type="f32" shape="" offset="896" size="4" />
			<output>
				<port id="0" precision="FP32" />
			</output>
		</layer>
		<layer id="185" name="Constant_914" type="Const" version="opset1">
			<data element_type="f32" shape="" offset="900" size="4" />
			<output>
				<port id="0" precision="FP32" />
			</output>
		</layer>
		<layer id="186" name="HardSigmoid.18" type="HardSigmoid" version="opset1">
			<input>
				<port id="0" precision="FP32">
					<dim>-1</dim>
					<dim>240</dim>
					<dim>-1</dim>
					<dim>-1</dim>
				</port>
				<port id="1" precision="FP32" />
				<port id="2" precision="FP32" />
			</input>
			<output>
				<port id="3" precision="FP32" names="HardSigmoid.19">
					<dim>-1</dim>
					<dim>240</dim>
					<dim>-1</dim>
					<dim>-1</dim>
				</port>
			</output>
		</layer>
		<layer id="187" name="Mul.9" type="Multiply" version="opset1">
			<data auto_broadcast="numpy" />
			<input>
				<port id="0" precision="FP32">
					<dim>-1</dim>
					<dim>240</dim>
					<dim>-1</dim>
					<dim>-1</dim>
				</port>
				<port id="1" precision="FP32">
					<dim>-1</dim>
					<dim>240</dim>
					<dim>-1</dim>
					<dim>-1</dim>
				</port>
			</input>
			<output>
				<port id="2" precision="FP32" names="p2o.pd_op.hardswish.9.0">
					<dim>-1</dim>
					<dim>240</dim>
					<dim>-1</dim>
					<dim>-1</dim>
				</port>
			</output>
		</layer>
		<layer id="188" name="Multiply_7656" type="Const" version="opset1">
			<data element_type="f32" shape="240, 1, 1, 3, 3" offset="246440" size="8640" />
			<output>
				<port id="0" precision="FP32">
					<dim>240</dim>
					<dim>1</dim>
					<dim>1</dim>
					<dim>3</dim>
					<dim>3</dim>
				</port>
			</output>
		</layer>
		<layer id="189" name="Multiply_7414" type="GroupConvolution" version="opset1">
			<data strides="1, 1" pads_begin="1, 1" pads_end="1, 1" dilations="1, 1" auto_pad="explicit" />
			<input>
				<port id="0" precision="FP32">
					<dim>-1</dim>
					<dim>240</dim>
					<dim>-1</dim>
					<dim>-1</dim>
				</port>
				<port id="1" precision="FP32">
					<dim>240</dim>
					<dim>1</dim>
					<dim>1</dim>
					<dim>3</dim>
					<dim>3</dim>
				</port>
			</input>
			<output>
				<port id="2" precision="FP32" names="p2o.pd_op.depthwise_conv2d.10.0">
					<dim>-1</dim>
					<dim>240</dim>
					<dim>-1</dim>
					<dim>-1</dim>
				</port>
			</output>
		</layer>
		<layer id="190" name="Constant_7419" type="Const" version="opset1">
			<data element_type="f32" shape="1, 240, 1, 1" offset="255080" size="960" />
			<output>
				<port id="0" precision="FP32">
					<dim>1</dim>
					<dim>240</dim>
					<dim>1</dim>
					<dim>1</dim>
				</port>
			</output>
		</layer>
		<layer id="191" name="BatchNormalization.32" type="Add" version="opset1">
			<data auto_broadcast="numpy" />
			<input>
				<port id="0" precision="FP32">
					<dim>-1</dim>
					<dim>240</dim>
					<dim>-1</dim>
					<dim>-1</dim>
				</port>
				<port id="1" precision="FP32">
					<dim>1</dim>
					<dim>240</dim>
					<dim>1</dim>
					<dim>1</dim>
				</port>
			</input>
			<output>
				<port id="2" precision="FP32" names="p2o.pd_op.batch_norm_.32.0">
					<dim>-1</dim>
					<dim>240</dim>
					<dim>-1</dim>
					<dim>-1</dim>
				</port>
			</output>
		</layer>
		<layer id="192" name="Constant_966" type="Const" version="opset1">
			<data element_type="f32" shape="" offset="896" size="4" />
			<output>
				<port id="0" precision="FP32" />
			</output>
		</layer>
		<layer id="193" name="Constant_967" type="Const" version="opset1">
			<data element_type="f32" shape="" offset="900" size="4" />
			<output>
				<port id="0" precision="FP32" />
			</output>
		</layer>
		<layer id="194" name="HardSigmoid.20" type="HardSigmoid" version="opset1">
			<input>
				<port id="0" precision="FP32">
					<dim>-1</dim>
					<dim>240</dim>
					<dim>-1</dim>
					<dim>-1</dim>
				</port>
				<port id="1" precision="FP32" />
				<port id="2" precision="FP32" />
			</input>
			<output>
				<port id="3" precision="FP32" names="HardSigmoid.21">
					<dim>-1</dim>
					<dim>240</dim>
					<dim>-1</dim>
					<dim>-1</dim>
				</port>
			</output>
		</layer>
		<layer id="195" name="Mul.10" type="Multiply" version="opset1">
			<data auto_broadcast="numpy" />
			<input>
				<port id="0" precision="FP32">
					<dim>-1</dim>
					<dim>240</dim>
					<dim>-1</dim>
					<dim>-1</dim>
				</port>
				<port id="1" precision="FP32">
					<dim>-1</dim>
					<dim>240</dim>
					<dim>-1</dim>
					<dim>-1</dim>
				</port>
			</input>
			<output>
				<port id="2" precision="FP32" names="p2o.pd_op.hardswish.10.0">
					<dim>-1</dim>
					<dim>240</dim>
					<dim>-1</dim>
					<dim>-1</dim>
				</port>
			</output>
		</layer>
		<layer id="196" name="Multiply_7659" type="Const" version="opset1">
			<data element_type="f32" shape="56, 240, 1, 1" offset="256040" size="53760" />
			<output>
				<port id="0" precision="FP32">
					<dim>56</dim>
					<dim>240</dim>
					<dim>1</dim>
					<dim>1</dim>
				</port>
			</output>
		</layer>
		<layer id="197" name="Multiply_7421" type="Convolution" version="opset1">
			<data strides="1, 1" dilations="1, 1" pads_begin="0, 0" pads_end="0, 0" auto_pad="explicit" />
			<input>
				<port id="0" precision="FP32">
					<dim>-1</dim>
					<dim>240</dim>
					<dim>-1</dim>
					<dim>-1</dim>
				</port>
				<port id="1" precision="FP32">
					<dim>56</dim>
					<dim>240</dim>
					<dim>1</dim>
					<dim>1</dim>
				</port>
			</input>
			<output>
				<port id="2" precision="FP32">
					<dim>-1</dim>
					<dim>56</dim>
					<dim>-1</dim>
					<dim>-1</dim>
				</port>
			</output>
		</layer>
		<layer id="198" name="Constant_7426" type="Const" version="opset1">
			<data element_type="f32" shape="1, 56, 1, 1" offset="309800" size="224" />
			<output>
				<port id="0" precision="FP32">
					<dim>1</dim>
					<dim>56</dim>
					<dim>1</dim>
					<dim>1</dim>
				</port>
			</output>
		</layer>
		<layer id="199" name="BatchNormalization.33" type="Add" version="opset1">
			<data auto_broadcast="numpy" />
			<input>
				<port id="0" precision="FP32">
					<dim>-1</dim>
					<dim>56</dim>
					<dim>-1</dim>
					<dim>-1</dim>
				</port>
				<port id="1" precision="FP32">
					<dim>1</dim>
					<dim>56</dim>
					<dim>1</dim>
					<dim>1</dim>
				</port>
			</input>
			<output>
				<port id="2" precision="FP32" names="p2o.pd_op.batch_norm_.33.0">
					<dim>-1</dim>
					<dim>56</dim>
					<dim>-1</dim>
					<dim>-1</dim>
				</port>
			</output>
		</layer>
		<layer id="200" name="Multiply_7663" type="Const" version="opset1">
			<data element_type="f32" shape="336, 56, 1, 1" offset="310024" size="75264" />
			<output>
				<port id="0" precision="FP32">
					<dim>336</dim>
					<dim>56</dim>
					<dim>1</dim>
					<dim>1</dim>
				</port>
			</output>
		</layer>
		<layer id="201" name="Multiply_7428" type="Convolution" version="opset1">
			<data strides="1, 1" dilations="1, 1" pads_begin="0, 0" pads_end="0, 0" auto_pad="explicit" />
			<input>
				<port id="0" precision="FP32">
					<dim>-1</dim>
					<dim>56</dim>
					<dim>-1</dim>
					<dim>-1</dim>
				</port>
				<port id="1" precision="FP32">
					<dim>336</dim>
					<dim>56</dim>
					<dim>1</dim>
					<dim>1</dim>
				</port>
			</input>
			<output>
				<port id="2" precision="FP32">
					<dim>-1</dim>
					<dim>336</dim>
					<dim>-1</dim>
					<dim>-1</dim>
				</port>
			</output>
		</layer>
		<layer id="202" name="Constant_7433" type="Const" version="opset1">
			<data element_type="f32" shape="1, 336, 1, 1" offset="385288" size="1344" />
			<output>
				<port id="0" precision="FP32">
					<dim>1</dim>
					<dim>336</dim>
					<dim>1</dim>
					<dim>1</dim>
				</port>
			</output>
		</layer>
		<layer id="203" name="BatchNormalization.34" type="Add" version="opset1">
			<data auto_broadcast="numpy" />
			<input>
				<port id="0" precision="FP32">
					<dim>-1</dim>
					<dim>336</dim>
					<dim>-1</dim>
					<dim>-1</dim>
				</port>
				<port id="1" precision="FP32">
					<dim>1</dim>
					<dim>336</dim>
					<dim>1</dim>
					<dim>1</dim>
				</port>
			</input>
			<output>
				<port id="2" precision="FP32" names="p2o.pd_op.batch_norm_.34.0">
					<dim>-1</dim>
					<dim>336</dim>
					<dim>-1</dim>
					<dim>-1</dim>
				</port>
			</output>
		</layer>
		<layer id="204" name="Constant_976" type="Const" version="opset1">
			<data element_type="f32" shape="" offset="896" size="4" />
			<output>
				<port id="0" precision="FP32" />
			</output>
		</layer>
		<layer id="205" name="Constant_977" type="Const" version="opset1">
			<data element_type="f32" shape="" offset="900" size="4" />
			<output>
				<port id="0" precision="FP32" />
			</output>
		</layer>
		<layer id="206" name="HardSigmoid.22" type="HardSigmoid" version="opset1">
			<input>
				<port id="0" precision="FP32">
					<dim>-1</dim>
					<dim>336</dim>
					<dim>-1</dim>
					<dim>-1</dim>
				</port>
				<port id="1" precision="FP32" />
				<port id="2" precision="FP32" />
			</input>
			<output>
				<port id="3" precision="FP32" names="HardSigmoid.23">
					<dim>-1</dim>
					<dim>336</dim>
					<dim>-1</dim>
					<dim>-1</dim>
				</port>
			</output>
		</layer>
		<layer id="207" name="Mul.11" type="Multiply" version="opset1">
			<data auto_broadcast="numpy" />
			<input>
				<port id="0" precision="FP32">
					<dim>-1</dim>
					<dim>336</dim>
					<dim>-1</dim>
					<dim>-1</dim>
				</port>
				<port id="1" precision="FP32">
					<dim>-1</dim>
					<dim>336</dim>
					<dim>-1</dim>
					<dim>-1</dim>
				</port>
			</input>
			<output>
				<port id="2" precision="FP32" names="p2o.pd_op.hardswish.11.0">
					<dim>-1</dim>
					<dim>336</dim>
					<dim>-1</dim>
					<dim>-1</dim>
				</port>
			</output>
		</layer>
		<layer id="208" name="Multiply_7667" type="Const" version="opset1">
			<data element_type="f32" shape="336, 1, 1, 3, 3" offset="386632" size="12096" />
			<output>
				<port id="0" precision="FP32">
					<dim>336</dim>
					<dim>1</dim>
					<dim>1</dim>
					<dim>3</dim>
					<dim>3</dim>
				</port>
			</output>
		</layer>
		<layer id="209" name="Multiply_7435" type="GroupConvolution" version="opset1">
			<data strides="1, 1" pads_begin="1, 1" pads_end="1, 1" dilations="1, 1" auto_pad="explicit" />
			<input>
				<port id="0" precision="FP32">
					<dim>-1</dim>
					<dim>336</dim>
					<dim>-1</dim>
					<dim>-1</dim>
				</port>
				<port id="1" precision="FP32">
					<dim>336</dim>
					<dim>1</dim>
					<dim>1</dim>
					<dim>3</dim>
					<dim>3</dim>
				</port>
			</input>
			<output>
				<port id="2" precision="FP32" names="p2o.pd_op.depthwise_conv2d.11.0">
					<dim>-1</dim>
					<dim>336</dim>
					<dim>-1</dim>
					<dim>-1</dim>
				</port>
			</output>
		</layer>
		<layer id="210" name="Constant_7440" type="Const" version="opset1">
			<data element_type="f32" shape="1, 336, 1, 1" offset="398728" size="1344" />
			<output>
				<port id="0" precision="FP32">
					<dim>1</dim>
					<dim>336</dim>
					<dim>1</dim>
					<dim>1</dim>
				</port>
			</output>
		</layer>
		<layer id="211" name="BatchNormalization.35" type="Add" version="opset1">
			<data auto_broadcast="numpy" />
			<input>
				<port id="0" precision="FP32">
					<dim>-1</dim>
					<dim>336</dim>
					<dim>-1</dim>
					<dim>-1</dim>
				</port>
				<port id="1" precision="FP32">
					<dim>1</dim>
					<dim>336</dim>
					<dim>1</dim>
					<dim>1</dim>
				</port>
			</input>
			<output>
				<port id="2" precision="FP32" names="p2o.pd_op.batch_norm_.35.0">
					<dim>-1</dim>
					<dim>336</dim>
					<dim>-1</dim>
					<dim>-1</dim>
				</port>
			</output>
		</layer>
		<layer id="212" name="Constant_1029" type="Const" version="opset1">
			<data element_type="f32" shape="" offset="896" size="4" />
			<output>
				<port id="0" precision="FP32" />
			</output>
		</layer>
		<layer id="213" name="Constant_1030" type="Const" version="opset1">
			<data element_type="f32" shape="" offset="900" size="4" />
			<output>
				<port id="0" precision="FP32" />
			</output>
		</layer>
		<layer id="214" name="HardSigmoid.24" type="HardSigmoid" version="opset1">
			<input>
				<port id="0" precision="FP32">
					<dim>-1</dim>
					<dim>336</dim>
					<dim>-1</dim>
					<dim>-1</dim>
				</port>
				<port id="1" precision="FP32" />
				<port id="2" precision="FP32" />
			</input>
			<output>
				<port id="3" precision="FP32" names="HardSigmoid.25">
					<dim>-1</dim>
					<dim>336</dim>
					<dim>-1</dim>
					<dim>-1</dim>
				</port>
			</output>
		</layer>
		<layer id="215" name="Mul.12" type="Multiply" version="opset1">
			<data auto_broadcast="numpy" />
			<input>
				<port id="0" precision="FP32">
					<dim>-1</dim>
					<dim>336</dim>
					<dim>-1</dim>
					<dim>-1</dim>
				</port>
				<port id="1" precision="FP32">
					<dim>-1</dim>
					<dim>336</dim>
					<dim>-1</dim>
					<dim>-1</dim>
				</port>
			</input>
			<output>
				<port id="2" precision="FP32" names="p2o.pd_op.hardswish.12.0">
					<dim>-1</dim>
					<dim>336</dim>
					<dim>-1</dim>
					<dim>-1</dim>
				</port>
			</output>
		</layer>
		<layer id="216" name="Multiply_7670" type="Const" version="opset1">
			<data element_type="f32" shape="56, 336, 1, 1" offset="400072" size="75264" />
			<output>
				<port id="0" precision="FP32">
					<dim>56</dim>
					<dim>336</dim>
					<dim>1</dim>
					<dim>1</dim>
				</port>
			</output>
		</layer>
		<layer id="217" name="Multiply_7442" type="Convolution" version="opset1">
			<data strides="1, 1" dilations="1, 1" pads_begin="0, 0" pads_end="0, 0" auto_pad="explicit" />
			<input>
				<port id="0" precision="FP32">
					<dim>-1</dim>
					<dim>336</dim>
					<dim>-1</dim>
					<dim>-1</dim>
				</port>
				<port id="1" precision="FP32">
					<dim>56</dim>
					<dim>336</dim>
					<dim>1</dim>
					<dim>1</dim>
				</port>
			</input>
			<output>
				<port id="2" precision="FP32">
					<dim>-1</dim>
					<dim>56</dim>
					<dim>-1</dim>
					<dim>-1</dim>
				</port>
			</output>
		</layer>
		<layer id="218" name="Constant_7447" type="Const" version="opset1">
			<data element_type="f32" shape="1, 56, 1, 1" offset="475336" size="224" />
			<output>
				<port id="0" precision="FP32">
					<dim>1</dim>
					<dim>56</dim>
					<dim>1</dim>
					<dim>1</dim>
				</port>
			</output>
		</layer>
		<layer id="219" name="BatchNormalization.36" type="Add" version="opset1">
			<data auto_broadcast="numpy" />
			<input>
				<port id="0" precision="FP32">
					<dim>-1</dim>
					<dim>56</dim>
					<dim>-1</dim>
					<dim>-1</dim>
				</port>
				<port id="1" precision="FP32">
					<dim>1</dim>
					<dim>56</dim>
					<dim>1</dim>
					<dim>1</dim>
				</port>
			</input>
			<output>
				<port id="2" precision="FP32" names="p2o.pd_op.batch_norm_.36.0">
					<dim>-1</dim>
					<dim>56</dim>
					<dim>-1</dim>
					<dim>-1</dim>
				</port>
			</output>
		</layer>
		<layer id="220" name="p2o.pd_op.add.7.0" type="Add" version="opset1">
			<data auto_broadcast="numpy" />
			<input>
				<port id="0" precision="FP32">
					<dim>-1</dim>
					<dim>56</dim>
					<dim>-1</dim>
					<dim>-1</dim>
				</port>
				<port id="1" precision="FP32">
					<dim>-1</dim>
					<dim>56</dim>
					<dim>-1</dim>
					<dim>-1</dim>
				</port>
			</input>
			<output>
				<port id="2" precision="FP32" names="Add.15,p2o.pd_op.add.7.0">
					<dim>-1</dim>
					<dim>56</dim>
					<dim>-1</dim>
					<dim>-1</dim>
				</port>
			</output>
		</layer>
		<layer id="221" name="Multiply_7674" type="Const" version="opset1">
			<data element_type="f32" shape="336, 56, 1, 1" offset="475560" size="75264" />
			<output>
				<port id="0" precision="FP32">
					<dim>336</dim>
					<dim>56</dim>
					<dim>1</dim>
					<dim>1</dim>
				</port>
			</output>
		</layer>
		<layer id="222" name="Multiply_7449" type="Convolution" version="opset1">
			<data strides="1, 1" dilations="1, 1" pads_begin="0, 0" pads_end="0, 0" auto_pad="explicit" />
			<input>
				<port id="0" precision="FP32">
					<dim>-1</dim>
					<dim>56</dim>
					<dim>-1</dim>
					<dim>-1</dim>
				</port>
				<port id="1" precision="FP32">
					<dim>336</dim>
					<dim>56</dim>
					<dim>1</dim>
					<dim>1</dim>
				</port>
			</input>
			<output>
				<port id="2" precision="FP32">
					<dim>-1</dim>
					<dim>336</dim>
					<dim>-1</dim>
					<dim>-1</dim>
				</port>
			</output>
		</layer>
		<layer id="223" name="Constant_7454" type="Const" version="opset1">
			<data element_type="f32" shape="1, 336, 1, 1" offset="550824" size="1344" />
			<output>
				<port id="0" precision="FP32">
					<dim>1</dim>
					<dim>336</dim>
					<dim>1</dim>
					<dim>1</dim>
				</port>
			</output>
		</layer>
		<layer id="224" name="BatchNormalization.37" type="Add" version="opset1">
			<data auto_broadcast="numpy" />
			<input>
				<port id="0" precision="FP32">
					<dim>-1</dim>
					<dim>336</dim>
					<dim>-1</dim>
					<dim>-1</dim>
				</port>
				<port id="1" precision="FP32">
					<dim>1</dim>
					<dim>336</dim>
					<dim>1</dim>
					<dim>1</dim>
				</port>
			</input>
			<output>
				<port id="2" precision="FP32" names="p2o.pd_op.batch_norm_.37.0">
					<dim>-1</dim>
					<dim>336</dim>
					<dim>-1</dim>
					<dim>-1</dim>
				</port>
			</output>
		</layer>
		<layer id="225" name="Constant_1040" type="Const" version="opset1">
			<data element_type="f32" shape="" offset="896" size="4" />
			<output>
				<port id="0" precision="FP32" />
			</output>
		</layer>
		<layer id="226" name="Constant_1041" type="Const" version="opset1">
			<data element_type="f32" shape="" offset="900" size="4" />
			<output>
				<port id="0" precision="FP32" />
			</output>
		</layer>
		<layer id="227" name="HardSigmoid.26" type="HardSigmoid" version="opset1">
			<input>
				<port id="0" precision="FP32">
					<dim>-1</dim>
					<dim>336</dim>
					<dim>-1</dim>
					<dim>-1</dim>
				</port>
				<port id="1" precision="FP32" />
				<port id="2" precision="FP32" />
			</input>
			<output>
				<port id="3" precision="FP32" names="HardSigmoid.27">
					<dim>-1</dim>
					<dim>336</dim>
					<dim>-1</dim>
					<dim>-1</dim>
				</port>
			</output>
		</layer>
		<layer id="228" name="Mul.13" type="Multiply" version="opset1">
			<data auto_broadcast="numpy" />
			<input>
				<port id="0" precision="FP32">
					<dim>-1</dim>
					<dim>336</dim>
					<dim>-1</dim>
					<dim>-1</dim>
				</port>
				<port id="1" precision="FP32">
					<dim>-1</dim>
					<dim>336</dim>
					<dim>-1</dim>
					<dim>-1</dim>
				</port>
			</input>
			<output>
				<port id="2" precision="FP32" names="p2o.pd_op.hardswish.13.0">
					<dim>-1</dim>
					<dim>336</dim>
					<dim>-1</dim>
					<dim>-1</dim>
				</port>
			</output>
		</layer>
		<layer id="229" name="Multiply_7678" type="Const" version="opset1">
			<data element_type="f32" shape="336, 1, 1, 5, 5" offset="552168" size="33600" />
			<output>
				<port id="0" precision="FP32">
					<dim>336</dim>
					<dim>1</dim>
					<dim>1</dim>
					<dim>5</dim>
					<dim>5</dim>
				</port>
			</output>
		</layer>
		<layer id="230" name="Multiply_7456" type="GroupConvolution" version="opset1">
			<data strides="2, 2" pads_begin="2, 2" pads_end="2, 2" dilations="1, 1" auto_pad="explicit" />
			<input>
				<port id="0" precision="FP32">
					<dim>-1</dim>
					<dim>336</dim>
					<dim>-1</dim>
					<dim>-1</dim>
				</port>
				<port id="1" precision="FP32">
					<dim>336</dim>
					<dim>1</dim>
					<dim>1</dim>
					<dim>5</dim>
					<dim>5</dim>
				</port>
			</input>
			<output>
				<port id="2" precision="FP32" names="p2o.pd_op.depthwise_conv2d.12.0">
					<dim>-1</dim>
					<dim>336</dim>
					<dim>-1</dim>
					<dim>-1</dim>
				</port>
			</output>
		</layer>
		<layer id="231" name="Constant_7461" type="Const" version="opset1">
			<data element_type="f32" shape="1, 336, 1, 1" offset="585768" size="1344" />
			<output>
				<port id="0" precision="FP32">
					<dim>1</dim>
					<dim>336</dim>
					<dim>1</dim>
					<dim>1</dim>
				</port>
			</output>
		</layer>
		<layer id="232" name="BatchNormalization.38" type="Add" version="opset1">
			<data auto_broadcast="numpy" />
			<input>
				<port id="0" precision="FP32">
					<dim>-1</dim>
					<dim>336</dim>
					<dim>-1</dim>
					<dim>-1</dim>
				</port>
				<port id="1" precision="FP32">
					<dim>1</dim>
					<dim>336</dim>
					<dim>1</dim>
					<dim>1</dim>
				</port>
			</input>
			<output>
				<port id="2" precision="FP32" names="p2o.pd_op.batch_norm_.38.0">
					<dim>-1</dim>
					<dim>336</dim>
					<dim>-1</dim>
					<dim>-1</dim>
				</port>
			</output>
		</layer>
		<layer id="233" name="Constant_1093" type="Const" version="opset1">
			<data element_type="f32" shape="" offset="896" size="4" />
			<output>
				<port id="0" precision="FP32" />
			</output>
		</layer>
		<layer id="234" name="Constant_1094" type="Const" version="opset1">
			<data element_type="f32" shape="" offset="900" size="4" />
			<output>
				<port id="0" precision="FP32" />
			</output>
		</layer>
		<layer id="235" name="HardSigmoid.28" type="HardSigmoid" version="opset1">
			<input>
				<port id="0" precision="FP32">
					<dim>-1</dim>
					<dim>336</dim>
					<dim>-1</dim>
					<dim>-1</dim>
				</port>
				<port id="1" precision="FP32" />
				<port id="2" precision="FP32" />
			</input>
			<output>
				<port id="3" precision="FP32" names="HardSigmoid.29">
					<dim>-1</dim>
					<dim>336</dim>
					<dim>-1</dim>
					<dim>-1</dim>
				</port>
			</output>
		</layer>
		<layer id="236" name="Mul.14" type="Multiply" version="opset1">
			<data auto_broadcast="numpy" />
			<input>
				<port id="0" precision="FP32">
					<dim>-1</dim>
					<dim>336</dim>
					<dim>-1</dim>
					<dim>-1</dim>
				</port>
				<port id="1" precision="FP32">
					<dim>-1</dim>
					<dim>336</dim>
					<dim>-1</dim>
					<dim>-1</dim>
				</port>
			</input>
			<output>
				<port id="2" precision="FP32" names="p2o.pd_op.hardswish.14.0">
					<dim>-1</dim>
					<dim>336</dim>
					<dim>-1</dim>
					<dim>-1</dim>
				</port>
			</output>
		</layer>
		<layer id="237" name="Multiply_7681" type="Const" version="opset1">
			<data element_type="f32" shape="80, 336, 1, 1" offset="587112" size="107520" />
			<output>
				<port id="0" precision="FP32">
					<dim>80</dim>
					<dim>336</dim>
					<dim>1</dim>
					<dim>1</dim>
				</port>
			</output>
		</layer>
		<layer id="238" name="Multiply_7463" type="Convolution" version="opset1">
			<data strides="1, 1" dilations="1, 1" pads_begin="0, 0" pads_end="0, 0" auto_pad="explicit" />
			<input>
				<port id="0" precision="FP32">
					<dim>-1</dim>
					<dim>336</dim>
					<dim>-1</dim>
					<dim>-1</dim>
				</port>
				<port id="1" precision="FP32">
					<dim>80</dim>
					<dim>336</dim>
					<dim>1</dim>
					<dim>1</dim>
				</port>
			</input>
			<output>
				<port id="2" precision="FP32">
					<dim>-1</dim>
					<dim>80</dim>
					<dim>-1</dim>
					<dim>-1</dim>
				</port>
			</output>
		</layer>
		<layer id="239" name="Constant_7468" type="Const" version="opset1">
			<data element_type="f32" shape="1, 80, 1, 1" offset="694632" size="320" />
			<output>
				<port id="0" precision="FP32">
					<dim>1</dim>
					<dim>80</dim>
					<dim>1</dim>
					<dim>1</dim>
				</port>
			</output>
		</layer>
		<layer id="240" name="BatchNormalization.39" type="Add" version="opset1">
			<data auto_broadcast="numpy" />
			<input>
				<port id="0" precision="FP32">
					<dim>-1</dim>
					<dim>80</dim>
					<dim>-1</dim>
					<dim>-1</dim>
				</port>
				<port id="1" precision="FP32">
					<dim>1</dim>
					<dim>80</dim>
					<dim>1</dim>
					<dim>1</dim>
				</port>
			</input>
			<output>
				<port id="2" precision="FP32" names="p2o.pd_op.batch_norm_.39.0">
					<dim>-1</dim>
					<dim>80</dim>
					<dim>-1</dim>
					<dim>-1</dim>
				</port>
			</output>
		</layer>
		<layer id="241" name="Multiply_7685" type="Const" version="opset1">
			<data element_type="f32" shape="480, 80, 1, 1" offset="694952" size="153600" />
			<output>
				<port id="0" precision="FP32">
					<dim>480</dim>
					<dim>80</dim>
					<dim>1</dim>
					<dim>1</dim>
				</port>
			</output>
		</layer>
		<layer id="242" name="Multiply_7470" type="Convolution" version="opset1">
			<data strides="1, 1" dilations="1, 1" pads_begin="0, 0" pads_end="0, 0" auto_pad="explicit" />
			<input>
				<port id="0" precision="FP32">
					<dim>-1</dim>
					<dim>80</dim>
					<dim>-1</dim>
					<dim>-1</dim>
				</port>
				<port id="1" precision="FP32">
					<dim>480</dim>
					<dim>80</dim>
					<dim>1</dim>
					<dim>1</dim>
				</port>
			</input>
			<output>
				<port id="2" precision="FP32">
					<dim>-1</dim>
					<dim>480</dim>
					<dim>-1</dim>
					<dim>-1</dim>
				</port>
			</output>
		</layer>
		<layer id="243" name="Constant_7475" type="Const" version="opset1">
			<data element_type="f32" shape="1, 480, 1, 1" offset="848552" size="1920" />
			<output>
				<port id="0" precision="FP32">
					<dim>1</dim>
					<dim>480</dim>
					<dim>1</dim>
					<dim>1</dim>
				</port>
			</output>
		</layer>
		<layer id="244" name="BatchNormalization.40" type="Add" version="opset1">
			<data auto_broadcast="numpy" />
			<input>
				<port id="0" precision="FP32">
					<dim>-1</dim>
					<dim>480</dim>
					<dim>-1</dim>
					<dim>-1</dim>
				</port>
				<port id="1" precision="FP32">
					<dim>1</dim>
					<dim>480</dim>
					<dim>1</dim>
					<dim>1</dim>
				</port>
			</input>
			<output>
				<port id="2" precision="FP32" names="p2o.pd_op.batch_norm_.40.0">
					<dim>-1</dim>
					<dim>480</dim>
					<dim>-1</dim>
					<dim>-1</dim>
				</port>
			</output>
		</layer>
		<layer id="245" name="Constant_1103" type="Const" version="opset1">
			<data element_type="f32" shape="" offset="896" size="4" />
			<output>
				<port id="0" precision="FP32" />
			</output>
		</layer>
		<layer id="246" name="Constant_1104" type="Const" version="opset1">
			<data element_type="f32" shape="" offset="900" size="4" />
			<output>
				<port id="0" precision="FP32" />
			</output>
		</layer>
		<layer id="247" name="HardSigmoid.30" type="HardSigmoid" version="opset1">
			<input>
				<port id="0" precision="FP32">
					<dim>-1</dim>
					<dim>480</dim>
					<dim>-1</dim>
					<dim>-1</dim>
				</port>
				<port id="1" precision="FP32" />
				<port id="2" precision="FP32" />
			</input>
			<output>
				<port id="3" precision="FP32" names="HardSigmoid.31">
					<dim>-1</dim>
					<dim>480</dim>
					<dim>-1</dim>
					<dim>-1</dim>
				</port>
			</output>
		</layer>
		<layer id="248" name="Mul.15" type="Multiply" version="opset1">
			<data auto_broadcast="numpy" />
			<input>
				<port id="0" precision="FP32">
					<dim>-1</dim>
					<dim>480</dim>
					<dim>-1</dim>
					<dim>-1</dim>
				</port>
				<port id="1" precision="FP32">
					<dim>-1</dim>
					<dim>480</dim>
					<dim>-1</dim>
					<dim>-1</dim>
				</port>
			</input>
			<output>
				<port id="2" precision="FP32" names="p2o.pd_op.hardswish.15.0">
					<dim>-1</dim>
					<dim>480</dim>
					<dim>-1</dim>
					<dim>-1</dim>
				</port>
			</output>
		</layer>
		<layer id="249" name="Multiply_7689" type="Const" version="opset1">
			<data element_type="f32" shape="480, 1, 1, 5, 5" offset="850472" size="48000" />
			<output>
				<port id="0" precision="FP32">
					<dim>480</dim>
					<dim>1</dim>
					<dim>1</dim>
					<dim>5</dim>
					<dim>5</dim>
				</port>
			</output>
		</layer>
		<layer id="250" name="Multiply_7477" type="GroupConvolution" version="opset1">
			<data strides="1, 1" pads_begin="2, 2" pads_end="2, 2" dilations="1, 1" auto_pad="explicit" />
			<input>
				<port id="0" precision="FP32">
					<dim>-1</dim>
					<dim>480</dim>
					<dim>-1</dim>
					<dim>-1</dim>
				</port>
				<port id="1" precision="FP32">
					<dim>480</dim>
					<dim>1</dim>
					<dim>1</dim>
					<dim>5</dim>
					<dim>5</dim>
				</port>
			</input>
			<output>
				<port id="2" precision="FP32" names="p2o.pd_op.depthwise_conv2d.13.0">
					<dim>-1</dim>
					<dim>480</dim>
					<dim>-1</dim>
					<dim>-1</dim>
				</port>
			</output>
		</layer>
		<layer id="251" name="Constant_7482" type="Const" version="opset1">
			<data element_type="f32" shape="1, 480, 1, 1" offset="898472" size="1920" />
			<output>
				<port id="0" precision="FP32">
					<dim>1</dim>
					<dim>480</dim>
					<dim>1</dim>
					<dim>1</dim>
				</port>
			</output>
		</layer>
		<layer id="252" name="BatchNormalization.41" type="Add" version="opset1">
			<data auto_broadcast="numpy" />
			<input>
				<port id="0" precision="FP32">
					<dim>-1</dim>
					<dim>480</dim>
					<dim>-1</dim>
					<dim>-1</dim>
				</port>
				<port id="1" precision="FP32">
					<dim>1</dim>
					<dim>480</dim>
					<dim>1</dim>
					<dim>1</dim>
				</port>
			</input>
			<output>
				<port id="2" precision="FP32" names="p2o.pd_op.batch_norm_.41.0">
					<dim>-1</dim>
					<dim>480</dim>
					<dim>-1</dim>
					<dim>-1</dim>
				</port>
			</output>
		</layer>
		<layer id="253" name="Constant_1156" type="Const" version="opset1">
			<data element_type="f32" shape="" offset="896" size="4" />
			<output>
				<port id="0" precision="FP32" />
			</output>
		</layer>
		<layer id="254" name="Constant_1157" type="Const" version="opset1">
			<data element_type="f32" shape="" offset="900" size="4" />
			<output>
				<port id="0" precision="FP32" />
			</output>
		</layer>
		<layer id="255" name="HardSigmoid.32" type="HardSigmoid" version="opset1">
			<input>
				<port id="0" precision="FP32">
					<dim>-1</dim>
					<dim>480</dim>
					<dim>-1</dim>
					<dim>-1</dim>
				</port>
				<port id="1" precision="FP32" />
				<port id="2" precision="FP32" />
			</input>
			<output>
				<port id="3" precision="FP32" names="HardSigmoid.33">
					<dim>-1</dim>
					<dim>480</dim>
					<dim>-1</dim>
					<dim>-1</dim>
				</port>
			</output>
		</layer>
		<layer id="256" name="Mul.16" type="Multiply" version="opset1">
			<data auto_broadcast="numpy" />
			<input>
				<port id="0" precision="FP32">
					<dim>-1</dim>
					<dim>480</dim>
					<dim>-1</dim>
					<dim>-1</dim>
				</port>
				<port id="1" precision="FP32">
					<dim>-1</dim>
					<dim>480</dim>
					<dim>-1</dim>
					<dim>-1</dim>
				</port>
			</input>
			<output>
				<port id="2" precision="FP32" names="p2o.pd_op.hardswish.16.0">
					<dim>-1</dim>
					<dim>480</dim>
					<dim>-1</dim>
					<dim>-1</dim>
				</port>
			</output>
		</layer>
		<layer id="257" name="Multiply_7692" type="Const" version="opset1">
			<data element_type="f32" shape="80, 480, 1, 1" offset="900392" size="153600" />
			<output>
				<port id="0" precision="FP32">
					<dim>80</dim>
					<dim>480</dim>
					<dim>1</dim>
					<dim>1</dim>
				</port>
			</output>
		</layer>
		<layer id="258" name="Multiply_7484" type="Convolution" version="opset1">
			<data strides="1, 1" dilations="1, 1" pads_begin="0, 0" pads_end="0, 0" auto_pad="explicit" />
			<input>
				<port id="0" precision="FP32">
					<dim>-1</dim>
					<dim>480</dim>
					<dim>-1</dim>
					<dim>-1</dim>
				</port>
				<port id="1" precision="FP32">
					<dim>80</dim>
					<dim>480</dim>
					<dim>1</dim>
					<dim>1</dim>
				</port>
			</input>
			<output>
				<port id="2" precision="FP32">
					<dim>-1</dim>
					<dim>80</dim>
					<dim>-1</dim>
					<dim>-1</dim>
				</port>
			</output>
		</layer>
		<layer id="259" name="Constant_7489" type="Const" version="opset1">
			<data element_type="f32" shape="1, 80, 1, 1" offset="1053992" size="320" />
			<output>
				<port id="0" precision="FP32">
					<dim>1</dim>
					<dim>80</dim>
					<dim>1</dim>
					<dim>1</dim>
				</port>
			</output>
		</layer>
		<layer id="260" name="BatchNormalization.42" type="Add" version="opset1">
			<data auto_broadcast="numpy" />
			<input>
				<port id="0" precision="FP32">
					<dim>-1</dim>
					<dim>80</dim>
					<dim>-1</dim>
					<dim>-1</dim>
				</port>
				<port id="1" precision="FP32">
					<dim>1</dim>
					<dim>80</dim>
					<dim>1</dim>
					<dim>1</dim>
				</port>
			</input>
			<output>
				<port id="2" precision="FP32" names="p2o.pd_op.batch_norm_.42.0">
					<dim>-1</dim>
					<dim>80</dim>
					<dim>-1</dim>
					<dim>-1</dim>
				</port>
			</output>
		</layer>
		<layer id="261" name="p2o.pd_op.add.8.0" type="Add" version="opset1">
			<data auto_broadcast="numpy" />
			<input>
				<port id="0" precision="FP32">
					<dim>-1</dim>
					<dim>80</dim>
					<dim>-1</dim>
					<dim>-1</dim>
				</port>
				<port id="1" precision="FP32">
					<dim>-1</dim>
					<dim>80</dim>
					<dim>-1</dim>
					<dim>-1</dim>
				</port>
			</input>
			<output>
				<port id="2" precision="FP32" names="Add.17,p2o.pd_op.add.8.0">
					<dim>-1</dim>
					<dim>80</dim>
					<dim>-1</dim>
					<dim>-1</dim>
				</port>
			</output>
		</layer>
		<layer id="262" name="Multiply_7696" type="Const" version="opset1">
			<data element_type="f32" shape="480, 80, 1, 1" offset="1054312" size="153600" />
			<output>
				<port id="0" precision="FP32">
					<dim>480</dim>
					<dim>80</dim>
					<dim>1</dim>
					<dim>1</dim>
				</port>
			</output>
		</layer>
		<layer id="263" name="Multiply_7491" type="Convolution" version="opset1">
			<data strides="1, 1" dilations="1, 1" pads_begin="0, 0" pads_end="0, 0" auto_pad="explicit" />
			<input>
				<port id="0" precision="FP32">
					<dim>-1</dim>
					<dim>80</dim>
					<dim>-1</dim>
					<dim>-1</dim>
				</port>
				<port id="1" precision="FP32">
					<dim>480</dim>
					<dim>80</dim>
					<dim>1</dim>
					<dim>1</dim>
				</port>
			</input>
			<output>
				<port id="2" precision="FP32">
					<dim>-1</dim>
					<dim>480</dim>
					<dim>-1</dim>
					<dim>-1</dim>
				</port>
			</output>
		</layer>
		<layer id="264" name="Constant_7496" type="Const" version="opset1">
			<data element_type="f32" shape="1, 480, 1, 1" offset="1207912" size="1920" />
			<output>
				<port id="0" precision="FP32">
					<dim>1</dim>
					<dim>480</dim>
					<dim>1</dim>
					<dim>1</dim>
				</port>
			</output>
		</layer>
		<layer id="265" name="BatchNormalization.43" type="Add" version="opset1">
			<data auto_broadcast="numpy" />
			<input>
				<port id="0" precision="FP32">
					<dim>-1</dim>
					<dim>480</dim>
					<dim>-1</dim>
					<dim>-1</dim>
				</port>
				<port id="1" precision="FP32">
					<dim>1</dim>
					<dim>480</dim>
					<dim>1</dim>
					<dim>1</dim>
				</port>
			</input>
			<output>
				<port id="2" precision="FP32" names="p2o.pd_op.batch_norm_.43.0">
					<dim>-1</dim>
					<dim>480</dim>
					<dim>-1</dim>
					<dim>-1</dim>
				</port>
			</output>
		</layer>
		<layer id="266" name="Constant_1167" type="Const" version="opset1">
			<data element_type="f32" shape="" offset="896" size="4" />
			<output>
				<port id="0" precision="FP32" />
			</output>
		</layer>
		<layer id="267" name="Constant_1168" type="Const" version="opset1">
			<data element_type="f32" shape="" offset="900" size="4" />
			<output>
				<port id="0" precision="FP32" />
			</output>
		</layer>
		<layer id="268" name="HardSigmoid.34" type="HardSigmoid" version="opset1">
			<input>
				<port id="0" precision="FP32">
					<dim>-1</dim>
					<dim>480</dim>
					<dim>-1</dim>
					<dim>-1</dim>
				</port>
				<port id="1" precision="FP32" />
				<port id="2" precision="FP32" />
			</input>
			<output>
				<port id="3" precision="FP32" names="HardSigmoid.35">
					<dim>-1</dim>
					<dim>480</dim>
					<dim>-1</dim>
					<dim>-1</dim>
				</port>
			</output>
		</layer>
		<layer id="269" name="Mul.17" type="Multiply" version="opset1">
			<data auto_broadcast="numpy" />
			<input>
				<port id="0" precision="FP32">
					<dim>-1</dim>
					<dim>480</dim>
					<dim>-1</dim>
					<dim>-1</dim>
				</port>
				<port id="1" precision="FP32">
					<dim>-1</dim>
					<dim>480</dim>
					<dim>-1</dim>
					<dim>-1</dim>
				</port>
			</input>
			<output>
				<port id="2" precision="FP32" names="p2o.pd_op.hardswish.17.0">
					<dim>-1</dim>
					<dim>480</dim>
					<dim>-1</dim>
					<dim>-1</dim>
				</port>
			</output>
		</layer>
		<layer id="270" name="Multiply_7700" type="Const" version="opset1">
			<data element_type="f32" shape="480, 1, 1, 5, 5" offset="1209832" size="48000" />
			<output>
				<port id="0" precision="FP32">
					<dim>480</dim>
					<dim>1</dim>
					<dim>1</dim>
					<dim>5</dim>
					<dim>5</dim>
				</port>
			</output>
		</layer>
		<layer id="271" name="Multiply_7498" type="GroupConvolution" version="opset1">
			<data strides="1, 1" pads_begin="2, 2" pads_end="2, 2" dilations="1, 1" auto_pad="explicit" />
			<input>
				<port id="0" precision="FP32">
					<dim>-1</dim>
					<dim>480</dim>
					<dim>-1</dim>
					<dim>-1</dim>
				</port>
				<port id="1" precision="FP32">
					<dim>480</dim>
					<dim>1</dim>
					<dim>1</dim>
					<dim>5</dim>
					<dim>5</dim>
				</port>
			</input>
			<output>
				<port id="2" precision="FP32" names="p2o.pd_op.depthwise_conv2d.14.0">
					<dim>-1</dim>
					<dim>480</dim>
					<dim>-1</dim>
					<dim>-1</dim>
				</port>
			</output>
		</layer>
		<layer id="272" name="Constant_7503" type="Const" version="opset1">
			<data element_type="f32" shape="1, 480, 1, 1" offset="1257832" size="1920" />
			<output>
				<port id="0" precision="FP32">
					<dim>1</dim>
					<dim>480</dim>
					<dim>1</dim>
					<dim>1</dim>
				</port>
			</output>
		</layer>
		<layer id="273" name="BatchNormalization.44" type="Add" version="opset1">
			<data auto_broadcast="numpy" />
			<input>
				<port id="0" precision="FP32">
					<dim>-1</dim>
					<dim>480</dim>
					<dim>-1</dim>
					<dim>-1</dim>
				</port>
				<port id="1" precision="FP32">
					<dim>1</dim>
					<dim>480</dim>
					<dim>1</dim>
					<dim>1</dim>
				</port>
			</input>
			<output>
				<port id="2" precision="FP32" names="p2o.pd_op.batch_norm_.44.0">
					<dim>-1</dim>
					<dim>480</dim>
					<dim>-1</dim>
					<dim>-1</dim>
				</port>
			</output>
		</layer>
		<layer id="274" name="Constant_1220" type="Const" version="opset1">
			<data element_type="f32" shape="" offset="896" size="4" />
			<output>
				<port id="0" precision="FP32" />
			</output>
		</layer>
		<layer id="275" name="Constant_1221" type="Const" version="opset1">
			<data element_type="f32" shape="" offset="900" size="4" />
			<output>
				<port id="0" precision="FP32" />
			</output>
		</layer>
		<layer id="276" name="HardSigmoid.36" type="HardSigmoid" version="opset1">
			<input>
				<port id="0" precision="FP32">
					<dim>-1</dim>
					<dim>480</dim>
					<dim>-1</dim>
					<dim>-1</dim>
				</port>
				<port id="1" precision="FP32" />
				<port id="2" precision="FP32" />
			</input>
			<output>
				<port id="3" precision="FP32" names="HardSigmoid.37">
					<dim>-1</dim>
					<dim>480</dim>
					<dim>-1</dim>
					<dim>-1</dim>
				</port>
			</output>
		</layer>
		<layer id="277" name="Mul.18" type="Multiply" version="opset1">
			<data auto_broadcast="numpy" />
			<input>
				<port id="0" precision="FP32">
					<dim>-1</dim>
					<dim>480</dim>
					<dim>-1</dim>
					<dim>-1</dim>
				</port>
				<port id="1" precision="FP32">
					<dim>-1</dim>
					<dim>480</dim>
					<dim>-1</dim>
					<dim>-1</dim>
				</port>
			</input>
			<output>
				<port id="2" precision="FP32" names="p2o.pd_op.hardswish.18.0">
					<dim>-1</dim>
					<dim>480</dim>
					<dim>-1</dim>
					<dim>-1</dim>
				</port>
			</output>
		</layer>
		<layer id="278" name="Multiply_7703" type="Const" version="opset1">
			<data element_type="f32" shape="80, 480, 1, 1" offset="1259752" size="153600" />
			<output>
				<port id="0" precision="FP32">
					<dim>80</dim>
					<dim>480</dim>
					<dim>1</dim>
					<dim>1</dim>
				</port>
			</output>
		</layer>
		<layer id="279" name="Multiply_7505" type="Convolution" version="opset1">
			<data strides="1, 1" dilations="1, 1" pads_begin="0, 0" pads_end="0, 0" auto_pad="explicit" />
			<input>
				<port id="0" precision="FP32">
					<dim>-1</dim>
					<dim>480</dim>
					<dim>-1</dim>
					<dim>-1</dim>
				</port>
				<port id="1" precision="FP32">
					<dim>80</dim>
					<dim>480</dim>
					<dim>1</dim>
					<dim>1</dim>
				</port>
			</input>
			<output>
				<port id="2" precision="FP32">
					<dim>-1</dim>
					<dim>80</dim>
					<dim>-1</dim>
					<dim>-1</dim>
				</port>
			</output>
		</layer>
		<layer id="280" name="Constant_7510" type="Const" version="opset1">
			<data element_type="f32" shape="1, 80, 1, 1" offset="1413352" size="320" />
			<output>
				<port id="0" precision="FP32">
					<dim>1</dim>
					<dim>80</dim>
					<dim>1</dim>
					<dim>1</dim>
				</port>
			</output>
		</layer>
		<layer id="281" name="BatchNormalization.45" type="Add" version="opset1">
			<data auto_broadcast="numpy" />
			<input>
				<port id="0" precision="FP32">
					<dim>-1</dim>
					<dim>80</dim>
					<dim>-1</dim>
					<dim>-1</dim>
				</port>
				<port id="1" precision="FP32">
					<dim>1</dim>
					<dim>80</dim>
					<dim>1</dim>
					<dim>1</dim>
				</port>
			</input>
			<output>
				<port id="2" precision="FP32" names="p2o.pd_op.batch_norm_.45.0">
					<dim>-1</dim>
					<dim>80</dim>
					<dim>-1</dim>
					<dim>-1</dim>
				</port>
			</output>
		</layer>
		<layer id="282" name="p2o.pd_op.add.9.0" type="Add" version="opset1">
			<data auto_broadcast="numpy" />
			<input>
				<port id="0" precision="FP32">
					<dim>-1</dim>
					<dim>80</dim>
					<dim>-1</dim>
					<dim>-1</dim>
				</port>
				<port id="1" precision="FP32">
					<dim>-1</dim>
					<dim>80</dim>
					<dim>-1</dim>
					<dim>-1</dim>
				</port>
			</input>
			<output>
				<port id="2" precision="FP32" names="Add.19,p2o.pd_op.add.9.0">
					<dim>-1</dim>
					<dim>80</dim>
					<dim>-1</dim>
					<dim>-1</dim>
				</port>
			</output>
		</layer>
		<layer id="283" name="Multiply_7707" type="Const" version="opset1">
			<data element_type="f32" shape="480, 80, 1, 1" offset="1413672" size="153600" />
			<output>
				<port id="0" precision="FP32">
					<dim>480</dim>
					<dim>80</dim>
					<dim>1</dim>
					<dim>1</dim>
				</port>
			</output>
		</layer>
		<layer id="284" name="Multiply_7512" type="Convolution" version="opset1">
			<data strides="1, 1" dilations="1, 1" pads_begin="0, 0" pads_end="0, 0" auto_pad="explicit" />
			<input>
				<port id="0" precision="FP32">
					<dim>-1</dim>
					<dim>80</dim>
					<dim>-1</dim>
					<dim>-1</dim>
				</port>
				<port id="1" precision="FP32">
					<dim>480</dim>
					<dim>80</dim>
					<dim>1</dim>
					<dim>1</dim>
				</port>
			</input>
			<output>
				<port id="2" precision="FP32">
					<dim>-1</dim>
					<dim>480</dim>
					<dim>-1</dim>
					<dim>-1</dim>
				</port>
			</output>
		</layer>
		<layer id="285" name="Constant_7517" type="Const" version="opset1">
			<data element_type="f32" shape="1, 480, 1, 1" offset="1567272" size="1920" />
			<output>
				<port id="0" precision="FP32">
					<dim>1</dim>
					<dim>480</dim>
					<dim>1</dim>
					<dim>1</dim>
				</port>
			</output>
		</layer>
		<layer id="286" name="BatchNormalization.46" type="Add" version="opset1">
			<data auto_broadcast="numpy" />
			<input>
				<port id="0" precision="FP32">
					<dim>-1</dim>
					<dim>480</dim>
					<dim>-1</dim>
					<dim>-1</dim>
				</port>
				<port id="1" precision="FP32">
					<dim>1</dim>
					<dim>480</dim>
					<dim>1</dim>
					<dim>1</dim>
				</port>
			</input>
			<output>
				<port id="2" precision="FP32" names="p2o.pd_op.batch_norm_.46.0">
					<dim>-1</dim>
					<dim>480</dim>
					<dim>-1</dim>
					<dim>-1</dim>
				</port>
			</output>
		</layer>
		<layer id="287" name="Constant_1231" type="Const" version="opset1">
			<data element_type="f32" shape="" offset="896" size="4" />
			<output>
				<port id="0" precision="FP32" />
			</output>
		</layer>
		<layer id="288" name="Constant_1232" type="Const" version="opset1">
			<data element_type="f32" shape="" offset="900" size="4" />
			<output>
				<port id="0" precision="FP32" />
			</output>
		</layer>
		<layer id="289" name="HardSigmoid.38" type="HardSigmoid" version="opset1">
			<input>
				<port id="0" precision="FP32">
					<dim>-1</dim>
					<dim>480</dim>
					<dim>-1</dim>
					<dim>-1</dim>
				</port>
				<port id="1" precision="FP32" />
				<port id="2" precision="FP32" />
			</input>
			<output>
				<port id="3" precision="FP32" names="HardSigmoid.39">
					<dim>-1</dim>
					<dim>480</dim>
					<dim>-1</dim>
					<dim>-1</dim>
				</port>
			</output>
		</layer>
		<layer id="290" name="Mul.19" type="Multiply" version="opset1">
			<data auto_broadcast="numpy" />
			<input>
				<port id="0" precision="FP32">
					<dim>-1</dim>
					<dim>480</dim>
					<dim>-1</dim>
					<dim>-1</dim>
				</port>
				<port id="1" precision="FP32">
					<dim>-1</dim>
					<dim>480</dim>
					<dim>-1</dim>
					<dim>-1</dim>
				</port>
			</input>
			<output>
				<port id="2" precision="FP32" names="p2o.pd_op.hardswish.19.0">
					<dim>-1</dim>
					<dim>480</dim>
					<dim>-1</dim>
					<dim>-1</dim>
				</port>
			</output>
		</layer>
		<layer id="291" name="conv2d_65.w_0" type="Const" version="opset1">
			<data element_type="f32" shape="96, 480, 1, 1" offset="1569192" size="184320" />
			<output>
				<port id="0" precision="FP32" names="conv2d_65.w_0">
					<dim>96</dim>
					<dim>480</dim>
					<dim>1</dim>
					<dim>1</dim>
				</port>
			</output>
		</layer>
		<layer id="292" name="Conv.47" type="Convolution" version="opset1">
			<data strides="1, 1" dilations="1, 1" pads_begin="0, 0" pads_end="0, 0" auto_pad="explicit" />
			<input>
				<port id="0" precision="FP32">
					<dim>-1</dim>
					<dim>480</dim>
					<dim>-1</dim>
					<dim>-1</dim>
				</port>
				<port id="1" precision="FP32">
					<dim>96</dim>
					<dim>480</dim>
					<dim>1</dim>
					<dim>1</dim>
				</port>
			</input>
			<output>
				<port id="2" precision="FP32" names="p2o.pd_op.conv2d.32.0">
					<dim>-1</dim>
					<dim>96</dim>
					<dim>-1</dim>
					<dim>-1</dim>
				</port>
			</output>
		</layer>
		<layer id="293" name="Range_1243" type="Const" version="opset1">
			<data element_type="i64" shape="2" offset="1753512" size="16" />
			<output>
				<port id="0" precision="I64">
					<dim>2</dim>
				</port>
			</output>
		</layer>
		<layer id="294" name="GlobalAveragePool.0" type="ReduceMean" version="opset1">
			<data keep_dims="true" />
			<input>
				<port id="0" precision="FP32">
					<dim>-1</dim>
					<dim>96</dim>
					<dim>-1</dim>
					<dim>-1</dim>
				</port>
				<port id="1" precision="I64">
					<dim>2</dim>
				</port>
			</input>
			<output>
				<port id="2" precision="FP32" names="p2o.pd_op.pool2d.0.0">
					<dim>-1</dim>
					<dim>96</dim>
					<dim>1</dim>
					<dim>1</dim>
				</port>
			</output>
		</layer>
		<layer id="295" name="conv2d_66.w_0" type="Const" version="opset1">
			<data element_type="f32" shape="24, 96, 1, 1" offset="1753528" size="9216" />
			<output>
				<port id="0" precision="FP32" names="conv2d_66.w_0">
					<dim>24</dim>
					<dim>96</dim>
					<dim>1</dim>
					<dim>1</dim>
				</port>
			</output>
		</layer>
		<layer id="296" name="Conv.48" type="Convolution" version="opset1">
			<data strides="1, 1" dilations="1, 1" pads_begin="0, 0" pads_end="0, 0" auto_pad="explicit" />
			<input>
				<port id="0" precision="FP32">
					<dim>-1</dim>
					<dim>96</dim>
					<dim>1</dim>
					<dim>1</dim>
				</port>
				<port id="1" precision="FP32">
					<dim>24</dim>
					<dim>96</dim>
					<dim>1</dim>
					<dim>1</dim>
				</port>
			</input>
			<output>
				<port id="2" precision="FP32" names="p2o.pd_op.conv2d.33.0">
					<dim>-1</dim>
					<dim>24</dim>
					<dim>1</dim>
					<dim>1</dim>
				</port>
			</output>
		</layer>
		<layer id="297" name="p2o.pd_op.reshape.0.0" type="Const" version="opset1">
			<data element_type="f32" shape="1, 24, 1, 1" offset="1762744" size="96" />
			<output>
				<port id="0" precision="FP32" names="p2o.pd_op.reshape.0.0">
					<dim>1</dim>
					<dim>24</dim>
					<dim>1</dim>
					<dim>1</dim>
				</port>
			</output>
		</layer>
		<layer id="298" name="p2o.pd_op.add.10.0" type="Add" version="opset1">
			<data auto_broadcast="numpy" />
			<input>
				<port id="0" precision="FP32">
					<dim>-1</dim>
					<dim>24</dim>
					<dim>1</dim>
					<dim>1</dim>
				</port>
				<port id="1" precision="FP32">
					<dim>1</dim>
					<dim>24</dim>
					<dim>1</dim>
					<dim>1</dim>
				</port>
			</input>
			<output>
				<port id="2" precision="FP32" names="Add.21,p2o.pd_op.add.10.0">
					<dim>-1</dim>
					<dim>24</dim>
					<dim>1</dim>
					<dim>1</dim>
				</port>
			</output>
		</layer>
		<layer id="299" name="Relu.12" type="ReLU" version="opset1">
			<input>
				<port id="0" precision="FP32">
					<dim>-1</dim>
					<dim>24</dim>
					<dim>1</dim>
					<dim>1</dim>
				</port>
			</input>
			<output>
				<port id="1" precision="FP32" names="p2o.pd_op.relu.12.0">
					<dim>-1</dim>
					<dim>24</dim>
					<dim>1</dim>
					<dim>1</dim>
				</port>
			</output>
		</layer>
		<layer id="300" name="conv2d_67.w_0" type="Const" version="opset1">
			<data element_type="f32" shape="96, 24, 1, 1" offset="1762840" size="9216" />
			<output>
				<port id="0" precision="FP32" names="conv2d_67.w_0">
					<dim>96</dim>
					<dim>24</dim>
					<dim>1</dim>
					<dim>1</dim>
				</port>
			</output>
		</layer>
		<layer id="301" name="Conv.49" type="Convolution" version="opset1">
			<data strides="1, 1" dilations="1, 1" pads_begin="0, 0" pads_end="0, 0" auto_pad="explicit" />
			<input>
				<port id="0" precision="FP32">
					<dim>-1</dim>
					<dim>24</dim>
					<dim>1</dim>
					<dim>1</dim>
				</port>
				<port id="1" precision="FP32">
					<dim>96</dim>
					<dim>24</dim>
					<dim>1</dim>
					<dim>1</dim>
				</port>
			</input>
			<output>
				<port id="2" precision="FP32" names="p2o.pd_op.conv2d.34.0">
					<dim>-1</dim>
					<dim>96</dim>
					<dim>1</dim>
					<dim>1</dim>
				</port>
			</output>
		</layer>
		<layer id="302" name="p2o.pd_op.reshape.1.0" type="Const" version="opset1">
			<data element_type="f32" shape="1, 96, 1, 1" offset="1772056" size="384" />
			<output>
				<port id="0" precision="FP32" names="p2o.pd_op.reshape.1.0">
					<dim>1</dim>
					<dim>96</dim>
					<dim>1</dim>
					<dim>1</dim>
				</port>
			</output>
		</layer>
		<layer id="303" name="p2o.pd_op.add.11.0" type="Add" version="opset1">
			<data auto_broadcast="numpy" />
			<input>
				<port id="0" precision="FP32">
					<dim>-1</dim>
					<dim>96</dim>
					<dim>1</dim>
					<dim>1</dim>
				</port>
				<port id="1" precision="FP32">
					<dim>1</dim>
					<dim>96</dim>
					<dim>1</dim>
					<dim>1</dim>
				</port>
			</input>
			<output>
				<port id="2" precision="FP32" names="Add.23,p2o.pd_op.add.11.0">
					<dim>-1</dim>
					<dim>96</dim>
					<dim>1</dim>
					<dim>1</dim>
				</port>
			</output>
		</layer>
		<layer id="304" name="Constant_1254" type="Const" version="opset1">
			<data element_type="f32" shape="" offset="1772440" size="4" />
			<output>
				<port id="0" precision="FP32" />
			</output>
		</layer>
		<layer id="305" name="Constant_1255" type="Const" version="opset1">
			<data element_type="f32" shape="" offset="900" size="4" />
			<output>
				<port id="0" precision="FP32" />
			</output>
		</layer>
		<layer id="306" name="HardSigmoid.40" type="HardSigmoid" version="opset1">
			<input>
				<port id="0" precision="FP32">
					<dim>-1</dim>
					<dim>96</dim>
					<dim>1</dim>
					<dim>1</dim>
				</port>
				<port id="1" precision="FP32" />
				<port id="2" precision="FP32" />
			</input>
			<output>
				<port id="3" precision="FP32" names="p2o.pd_op.hardsigmoid.0.0">
					<dim>-1</dim>
					<dim>96</dim>
					<dim>1</dim>
					<dim>1</dim>
				</port>
			</output>
		</layer>
		<layer id="307" name="p2o.pd_op.multiply.0.0" type="Multiply" version="opset1">
			<data auto_broadcast="numpy" />
			<input>
				<port id="0" precision="FP32">
					<dim>-1</dim>
					<dim>96</dim>
					<dim>-1</dim>
					<dim>-1</dim>
				</port>
				<port id="1" precision="FP32">
					<dim>-1</dim>
					<dim>96</dim>
					<dim>1</dim>
					<dim>1</dim>
				</port>
			</input>
			<output>
				<port id="2" precision="FP32" names="Mul.21,p2o.pd_op.multiply.0.0">
					<dim>-1</dim>
					<dim>96</dim>
					<dim>-1</dim>
					<dim>-1</dim>
				</port>
			</output>
		</layer>
		<layer id="308" name="p2o.pd_op.add.12.0" type="Add" version="opset1">
			<data auto_broadcast="numpy" />
			<input>
				<port id="0" precision="FP32">
					<dim>-1</dim>
					<dim>96</dim>
					<dim>-1</dim>
					<dim>-1</dim>
				</port>
				<port id="1" precision="FP32">
					<dim>-1</dim>
					<dim>96</dim>
					<dim>-1</dim>
					<dim>-1</dim>
				</port>
			</input>
			<output>
				<port id="2" precision="FP32" names="Add.25,p2o.pd_op.add.12.0">
					<dim>-1</dim>
					<dim>96</dim>
					<dim>-1</dim>
					<dim>-1</dim>
				</port>
			</output>
		</layer>
		<layer id="309" name="conv2d_68.w_0" type="Const" version="opset1">
			<data element_type="f32" shape="24, 96, 3, 3" offset="1772444" size="82944" />
			<output>
				<port id="0" precision="FP32" names="conv2d_68.w_0">
					<dim>24</dim>
					<dim>96</dim>
					<dim>3</dim>
					<dim>3</dim>
				</port>
			</output>
		</layer>
		<layer id="310" name="Conv.59" type="Convolution" version="opset1">
			<data strides="1, 1" dilations="1, 1" pads_begin="1, 1" pads_end="1, 1" auto_pad="explicit" />
			<input>
				<port id="0" precision="FP32">
					<dim>-1</dim>
					<dim>96</dim>
					<dim>-1</dim>
					<dim>-1</dim>
				</port>
				<port id="1" precision="FP32">
					<dim>24</dim>
					<dim>96</dim>
					<dim>3</dim>
					<dim>3</dim>
				</port>
			</input>
			<output>
				<port id="2" precision="FP32" names="p2o.pd_op.conv2d.44.0">
					<dim>-1</dim>
					<dim>24</dim>
					<dim>-1</dim>
					<dim>-1</dim>
				</port>
			</output>
		</layer>
		<layer id="311" name="Range_1345" type="Const" version="opset1">
			<data element_type="i64" shape="2" offset="1753512" size="16" />
			<output>
				<port id="0" precision="I64">
					<dim>2</dim>
				</port>
			</output>
		</layer>
		<layer id="312" name="GlobalAveragePool.4" type="ReduceMean" version="opset1">
			<data keep_dims="true" />
			<input>
				<port id="0" precision="FP32">
					<dim>-1</dim>
					<dim>24</dim>
					<dim>-1</dim>
					<dim>-1</dim>
				</port>
				<port id="1" precision="I64">
					<dim>2</dim>
				</port>
			</input>
			<output>
				<port id="2" precision="FP32" names="p2o.pd_op.pool2d.4.0">
					<dim>-1</dim>
					<dim>24</dim>
					<dim>1</dim>
					<dim>1</dim>
				</port>
			</output>
		</layer>
		<layer id="313" name="conv2d_69.w_0" type="Const" version="opset1">
			<data element_type="f32" shape="6, 24, 1, 1" offset="1855388" size="576" />
			<output>
				<port id="0" precision="FP32" names="conv2d_69.w_0">
					<dim>6</dim>
					<dim>24</dim>
					<dim>1</dim>
					<dim>1</dim>
				</port>
			</output>
		</layer>
		<layer id="314" name="Conv.60" type="Convolution" version="opset1">
			<data strides="1, 1" dilations="1, 1" pads_begin="0, 0" pads_end="0, 0" auto_pad="explicit" />
			<input>
				<port id="0" precision="FP32">
					<dim>-1</dim>
					<dim>24</dim>
					<dim>1</dim>
					<dim>1</dim>
				</port>
				<port id="1" precision="FP32">
					<dim>6</dim>
					<dim>24</dim>
					<dim>1</dim>
					<dim>1</dim>
				</port>
			</input>
			<output>
				<port id="2" precision="FP32" names="p2o.pd_op.conv2d.45.0">
					<dim>-1</dim>
					<dim>6</dim>
					<dim>1</dim>
					<dim>1</dim>
				</port>
			</output>
		</layer>
		<layer id="315" name="p2o.pd_op.reshape.8.0" type="Const" version="opset1">
			<data element_type="f32" shape="1, 6, 1, 1" offset="1855964" size="24" />
			<output>
				<port id="0" precision="FP32" names="p2o.pd_op.reshape.8.0">
					<dim>1</dim>
					<dim>6</dim>
					<dim>1</dim>
					<dim>1</dim>
				</port>
			</output>
		</layer>
		<layer id="316" name="p2o.pd_op.add.25.0" type="Add" version="opset1">
			<data auto_broadcast="numpy" />
			<input>
				<port id="0" precision="FP32">
					<dim>-1</dim>
					<dim>6</dim>
					<dim>1</dim>
					<dim>1</dim>
				</port>
				<port id="1" precision="FP32">
					<dim>1</dim>
					<dim>6</dim>
					<dim>1</dim>
					<dim>1</dim>
				</port>
			</input>
			<output>
				<port id="2" precision="FP32" names="Add.51,p2o.pd_op.add.25.0">
					<dim>-1</dim>
					<dim>6</dim>
					<dim>1</dim>
					<dim>1</dim>
				</port>
			</output>
		</layer>
		<layer id="317" name="Relu.16" type="ReLU" version="opset1">
			<input>
				<port id="0" precision="FP32">
					<dim>-1</dim>
					<dim>6</dim>
					<dim>1</dim>
					<dim>1</dim>
				</port>
			</input>
			<output>
				<port id="1" precision="FP32" names="p2o.pd_op.relu.16.0">
					<dim>-1</dim>
					<dim>6</dim>
					<dim>1</dim>
					<dim>1</dim>
				</port>
			</output>
		</layer>
		<layer id="318" name="conv2d_70.w_0" type="Const" version="opset1">
			<data element_type="f32" shape="24, 6, 1, 1" offset="1855988" size="576" />
			<output>
				<port id="0" precision="FP32" names="conv2d_70.w_0">
					<dim>24</dim>
					<dim>6</dim>
					<dim>1</dim>
					<dim>1</dim>
				</port>
			</output>
		</layer>
		<layer id="319" name="Conv.61" type="Convolution" version="opset1">
			<data strides="1, 1" dilations="1, 1" pads_begin="0, 0" pads_end="0, 0" auto_pad="explicit" />
			<input>
				<port id="0" precision="FP32">
					<dim>-1</dim>
					<dim>6</dim>
					<dim>1</dim>
					<dim>1</dim>
				</port>
				<port id="1" precision="FP32">
					<dim>24</dim>
					<dim>6</dim>
					<dim>1</dim>
					<dim>1</dim>
				</port>
			</input>
			<output>
				<port id="2" precision="FP32" names="p2o.pd_op.conv2d.46.0">
					<dim>-1</dim>
					<dim>24</dim>
					<dim>1</dim>
					<dim>1</dim>
				</port>
			</output>
		</layer>
		<layer id="320" name="p2o.pd_op.reshape.9.0" type="Const" version="opset1">
			<data element_type="f32" shape="1, 24, 1, 1" offset="1856564" size="96" />
			<output>
				<port id="0" precision="FP32" names="p2o.pd_op.reshape.9.0">
					<dim>1</dim>
					<dim>24</dim>
					<dim>1</dim>
					<dim>1</dim>
				</port>
			</output>
		</layer>
		<layer id="321" name="p2o.pd_op.add.26.0" type="Add" version="opset1">
			<data auto_broadcast="numpy" />
			<input>
				<port id="0" precision="FP32">
					<dim>-1</dim>
					<dim>24</dim>
					<dim>1</dim>
					<dim>1</dim>
				</port>
				<port id="1" precision="FP32">
					<dim>1</dim>
					<dim>24</dim>
					<dim>1</dim>
					<dim>1</dim>
				</port>
			</input>
			<output>
				<port id="2" precision="FP32" names="Add.53,p2o.pd_op.add.26.0">
					<dim>-1</dim>
					<dim>24</dim>
					<dim>1</dim>
					<dim>1</dim>
				</port>
			</output>
		</layer>
		<layer id="322" name="Constant_1356" type="Const" version="opset1">
			<data element_type="f32" shape="" offset="1772440" size="4" />
			<output>
				<port id="0" precision="FP32" />
			</output>
		</layer>
		<layer id="323" name="Constant_1357" type="Const" version="opset1">
			<data element_type="f32" shape="" offset="900" size="4" />
			<output>
				<port id="0" precision="FP32" />
			</output>
		</layer>
		<layer id="324" name="HardSigmoid.44" type="HardSigmoid" version="opset1">
			<input>
				<port id="0" precision="FP32">
					<dim>-1</dim>
					<dim>24</dim>
					<dim>1</dim>
					<dim>1</dim>
				</port>
				<port id="1" precision="FP32" />
				<port id="2" precision="FP32" />
			</input>
			<output>
				<port id="3" precision="FP32" names="p2o.pd_op.hardsigmoid.4.0">
					<dim>-1</dim>
					<dim>24</dim>
					<dim>1</dim>
					<dim>1</dim>
				</port>
			</output>
		</layer>
		<layer id="325" name="p2o.pd_op.multiply.4.0" type="Multiply" version="opset1">
			<data auto_broadcast="numpy" />
			<input>
				<port id="0" precision="FP32">
					<dim>-1</dim>
					<dim>24</dim>
					<dim>-1</dim>
					<dim>-1</dim>
				</port>
				<port id="1" precision="FP32">
					<dim>-1</dim>
					<dim>24</dim>
					<dim>1</dim>
					<dim>1</dim>
				</port>
			</input>
			<output>
				<port id="2" precision="FP32" names="Mul.29,p2o.pd_op.multiply.4.0">
					<dim>-1</dim>
					<dim>24</dim>
					<dim>-1</dim>
					<dim>-1</dim>
				</port>
			</output>
		</layer>
		<layer id="326" name="p2o.pd_op.add.27.0" type="Add" version="opset1">
			<data auto_broadcast="numpy" />
			<input>
				<port id="0" precision="FP32">
					<dim>-1</dim>
					<dim>24</dim>
					<dim>-1</dim>
					<dim>-1</dim>
				</port>
				<port id="1" precision="FP32">
					<dim>-1</dim>
					<dim>24</dim>
					<dim>-1</dim>
					<dim>-1</dim>
				</port>
			</input>
			<output>
				<port id="2" precision="FP32" names="Add.55,p2o.pd_op.add.27.0">
					<dim>-1</dim>
					<dim>24</dim>
					<dim>-1</dim>
					<dim>-1</dim>
				</port>
			</output>
		</layer>
		<layer id="327" name="helper.constant.6" type="Const" version="opset1">
			<data element_type="f32" shape="4" offset="1856660" size="16" />
			<output>
				<port id="0" precision="FP32" names="helper.constant.6">
					<dim>4</dim>
				</port>
			</output>
		</layer>
		<layer id="328" name="auto.cast.16" type="Interpolate" version="opset11">
			<data mode="nearest" shape_calculation_mode="scales" coordinate_transformation_mode="asymmetric" nearest_mode="floor" antialias="false" pads_begin="0, 0, 0, 0" pads_end="0, 0, 0, 0" cube_coeff="-0.75" />
			<input>
				<port id="0" precision="FP32">
					<dim>-1</dim>
					<dim>24</dim>
					<dim>-1</dim>
					<dim>-1</dim>
				</port>
				<port id="1" precision="FP32">
					<dim>4</dim>
				</port>
			</input>
			<output>
				<port id="2" precision="FP32" names="auto.cast.16,p2o.builtin.combine.0.0_0,p2o.pd_op.nearest_interp.3.0">
					<dim>-1</dim>
					<dim>24</dim>
					<dim>-1</dim>
					<dim>-1</dim>
				</port>
			</output>
		</layer>
		<layer id="329" name="conv2d_59.w_0" type="Const" version="opset1">
			<data element_type="f32" shape="96, 56, 1, 1" offset="1856676" size="21504" />
			<output>
				<port id="0" precision="FP32" names="conv2d_59.w_0">
					<dim>96</dim>
					<dim>56</dim>
					<dim>1</dim>
					<dim>1</dim>
				</port>
			</output>
		</layer>
		<layer id="330" name="Conv.50" type="Convolution" version="opset1">
			<data strides="1, 1" dilations="1, 1" pads_begin="0, 0" pads_end="0, 0" auto_pad="explicit" />
			<input>
				<port id="0" precision="FP32">
					<dim>-1</dim>
					<dim>56</dim>
					<dim>-1</dim>
					<dim>-1</dim>
				</port>
				<port id="1" precision="FP32">
					<dim>96</dim>
					<dim>56</dim>
					<dim>1</dim>
					<dim>1</dim>
				</port>
			</input>
			<output>
				<port id="2" precision="FP32" names="p2o.pd_op.conv2d.35.0">
					<dim>-1</dim>
					<dim>96</dim>
					<dim>-1</dim>
					<dim>-1</dim>
				</port>
			</output>
		</layer>
		<layer id="331" name="Range_1267" type="Const" version="opset1">
			<data element_type="i64" shape="2" offset="1753512" size="16" />
			<output>
				<port id="0" precision="I64">
					<dim>2</dim>
				</port>
			</output>
		</layer>
		<layer id="332" name="GlobalAveragePool.1" type="ReduceMean" version="opset1">
			<data keep_dims="true" />
			<input>
				<port id="0" precision="FP32">
					<dim>-1</dim>
					<dim>96</dim>
					<dim>-1</dim>
					<dim>-1</dim>
				</port>
				<port id="1" precision="I64">
					<dim>2</dim>
				</port>
			</input>
			<output>
				<port id="2" precision="FP32" names="p2o.pd_op.pool2d.1.0">
					<dim>-1</dim>
					<dim>96</dim>
					<dim>1</dim>
					<dim>1</dim>
				</port>
			</output>
		</layer>
		<layer id="333" name="conv2d_60.w_0" type="Const" version="opset1">
			<data element_type="f32" shape="24, 96, 1, 1" offset="1878180" size="9216" />
			<output>
				<port id="0" precision="FP32" names="conv2d_60.w_0">
					<dim>24</dim>
					<dim>96</dim>
					<dim>1</dim>
					<dim>1</dim>
				</port>
			</output>
		</layer>
		<layer id="334" name="Conv.51" type="Convolution" version="opset1">
			<data strides="1, 1" dilations="1, 1" pads_begin="0, 0" pads_end="0, 0" auto_pad="explicit" />
			<input>
				<port id="0" precision="FP32">
					<dim>-1</dim>
					<dim>96</dim>
					<dim>1</dim>
					<dim>1</dim>
				</port>
				<port id="1" precision="FP32">
					<dim>24</dim>
					<dim>96</dim>
					<dim>1</dim>
					<dim>1</dim>
				</port>
			</input>
			<output>
				<port id="2" precision="FP32" names="p2o.pd_op.conv2d.36.0">
					<dim>-1</dim>
					<dim>24</dim>
					<dim>1</dim>
					<dim>1</dim>
				</port>
			</output>
		</layer>
		<layer id="335" name="p2o.pd_op.reshape.2.0" type="Const" version="opset1">
			<data element_type="f32" shape="1, 24, 1, 1" offset="1887396" size="96" />
			<output>
				<port id="0" precision="FP32" names="p2o.pd_op.reshape.2.0">
					<dim>1</dim>
					<dim>24</dim>
					<dim>1</dim>
					<dim>1</dim>
				</port>
			</output>
		</layer>
		<layer id="336" name="p2o.pd_op.add.13.0" type="Add" version="opset1">
			<data auto_broadcast="numpy" />
			<input>
				<port id="0" precision="FP32">
					<dim>-1</dim>
					<dim>24</dim>
					<dim>1</dim>
					<dim>1</dim>
				</port>
				<port id="1" precision="FP32">
					<dim>1</dim>
					<dim>24</dim>
					<dim>1</dim>
					<dim>1</dim>
				</port>
			</input>
			<output>
				<port id="2" precision="FP32" names="Add.27,p2o.pd_op.add.13.0">
					<dim>-1</dim>
					<dim>24</dim>
					<dim>1</dim>
					<dim>1</dim>
				</port>
			</output>
		</layer>
		<layer id="337" name="Relu.13" type="ReLU" version="opset1">
			<input>
				<port id="0" precision="FP32">
					<dim>-1</dim>
					<dim>24</dim>
					<dim>1</dim>
					<dim>1</dim>
				</port>
			</input>
			<output>
				<port id="1" precision="FP32" names="p2o.pd_op.relu.13.0">
					<dim>-1</dim>
					<dim>24</dim>
					<dim>1</dim>
					<dim>1</dim>
				</port>
			</output>
		</layer>
		<layer id="338" name="conv2d_61.w_0" type="Const" version="opset1">
			<data element_type="f32" shape="96, 24, 1, 1" offset="1887492" size="9216" />
			<output>
				<port id="0" precision="FP32" names="conv2d_61.w_0">
					<dim>96</dim>
					<dim>24</dim>
					<dim>1</dim>
					<dim>1</dim>
				</port>
			</output>
		</layer>
		<layer id="339" name="Conv.52" type="Convolution" version="opset1">
			<data strides="1, 1" dilations="1, 1" pads_begin="0, 0" pads_end="0, 0" auto_pad="explicit" />
			<input>
				<port id="0" precision="FP32">
					<dim>-1</dim>
					<dim>24</dim>
					<dim>1</dim>
					<dim>1</dim>
				</port>
				<port id="1" precision="FP32">
					<dim>96</dim>
					<dim>24</dim>
					<dim>1</dim>
					<dim>1</dim>
				</port>
			</input>
			<output>
				<port id="2" precision="FP32" names="p2o.pd_op.conv2d.37.0">
					<dim>-1</dim>
					<dim>96</dim>
					<dim>1</dim>
					<dim>1</dim>
				</port>
			</output>
		</layer>
		<layer id="340" name="p2o.pd_op.reshape.3.0" type="Const" version="opset1">
			<data element_type="f32" shape="1, 96, 1, 1" offset="1896708" size="384" />
			<output>
				<port id="0" precision="FP32" names="p2o.pd_op.reshape.3.0">
					<dim>1</dim>
					<dim>96</dim>
					<dim>1</dim>
					<dim>1</dim>
				</port>
			</output>
		</layer>
		<layer id="341" name="p2o.pd_op.add.14.0" type="Add" version="opset1">
			<data auto_broadcast="numpy" />
			<input>
				<port id="0" precision="FP32">
					<dim>-1</dim>
					<dim>96</dim>
					<dim>1</dim>
					<dim>1</dim>
				</port>
				<port id="1" precision="FP32">
					<dim>1</dim>
					<dim>96</dim>
					<dim>1</dim>
					<dim>1</dim>
				</port>
			</input>
			<output>
				<port id="2" precision="FP32" names="Add.29,p2o.pd_op.add.14.0">
					<dim>-1</dim>
					<dim>96</dim>
					<dim>1</dim>
					<dim>1</dim>
				</port>
			</output>
		</layer>
		<layer id="342" name="Constant_1278" type="Const" version="opset1">
			<data element_type="f32" shape="" offset="1772440" size="4" />
			<output>
				<port id="0" precision="FP32" />
			</output>
		</layer>
		<layer id="343" name="Constant_1279" type="Const" version="opset1">
			<data element_type="f32" shape="" offset="900" size="4" />
			<output>
				<port id="0" precision="FP32" />
			</output>
		</layer>
		<layer id="344" name="HardSigmoid.41" type="HardSigmoid" version="opset1">
			<input>
				<port id="0" precision="FP32">
					<dim>-1</dim>
					<dim>96</dim>
					<dim>1</dim>
					<dim>1</dim>
				</port>
				<port id="1" precision="FP32" />
				<port id="2" precision="FP32" />
			</input>
			<output>
				<port id="3" precision="FP32" names="p2o.pd_op.hardsigmoid.1.0">
					<dim>-1</dim>
					<dim>96</dim>
					<dim>1</dim>
					<dim>1</dim>
				</port>
			</output>
		</layer>
		<layer id="345" name="p2o.pd_op.multiply.1.0" type="Multiply" version="opset1">
			<data auto_broadcast="numpy" />
			<input>
				<port id="0" precision="FP32">
					<dim>-1</dim>
					<dim>96</dim>
					<dim>-1</dim>
					<dim>-1</dim>
				</port>
				<port id="1" precision="FP32">
					<dim>-1</dim>
					<dim>96</dim>
					<dim>1</dim>
					<dim>1</dim>
				</port>
			</input>
			<output>
				<port id="2" precision="FP32" names="Mul.23,p2o.pd_op.multiply.1.0">
					<dim>-1</dim>
					<dim>96</dim>
					<dim>-1</dim>
					<dim>-1</dim>
				</port>
			</output>
		</layer>
		<layer id="346" name="p2o.pd_op.add.15.0" type="Add" version="opset1">
			<data auto_broadcast="numpy" />
			<input>
				<port id="0" precision="FP32">
					<dim>-1</dim>
					<dim>96</dim>
					<dim>-1</dim>
					<dim>-1</dim>
				</port>
				<port id="1" precision="FP32">
					<dim>-1</dim>
					<dim>96</dim>
					<dim>-1</dim>
					<dim>-1</dim>
				</port>
			</input>
			<output>
				<port id="2" precision="FP32" names="Add.31,p2o.pd_op.add.15.0">
					<dim>-1</dim>
					<dim>96</dim>
					<dim>-1</dim>
					<dim>-1</dim>
				</port>
			</output>
		</layer>
		<layer id="347" name="helper.constant.0" type="Const" version="opset1">
			<data element_type="f32" shape="4" offset="1897092" size="16" />
			<output>
				<port id="0" precision="FP32" names="helper.constant.0">
					<dim>4</dim>
				</port>
			</output>
		</layer>
		<layer id="348" name="Resize.0" type="Interpolate" version="opset11">
			<data mode="nearest" shape_calculation_mode="scales" coordinate_transformation_mode="asymmetric" nearest_mode="floor" antialias="false" pads_begin="0, 0, 0, 0" pads_end="0, 0, 0, 0" cube_coeff="-0.75" />
			<input>
				<port id="0" precision="FP32">
					<dim>-1</dim>
					<dim>96</dim>
					<dim>-1</dim>
					<dim>-1</dim>
				</port>
				<port id="1" precision="FP32">
					<dim>4</dim>
				</port>
…
					<dim>24</dim>
					<dim>1</dim>
					<dim>1</dim>
				</port>
			</output>
		</layer>
		<layer id="436" name="conv2d_51.w_0" type="Const" version="opset1">
			<data element_type="f32" shape="6, 24, 1, 1" offset="2201684" size="576" />
			<output>
				<port id="0" precision="FP32" names="conv2d_51.w_0">
					<dim>6</dim>
					<dim>24</dim>
					<dim>1</dim>
					<dim>1</dim>
				</port>
			</output>
		</layer>
		<layer id="437" name="Conv.69" type="Convolution" version="opset1">
			<data strides="1, 1" dilations="1, 1" pads_begin="0, 0" pads_end="0, 0" auto_pad="explicit" />
			<input>
				<port id="0" precision="FP32">
					<dim>-1</dim>
					<dim>24</dim>
					<dim>1</dim>
					<dim>1</dim>
				</port>
				<port id="1" precision="FP32">
					<dim>6</dim>
					<dim>24</dim>
					<dim>1</dim>
					<dim>1</dim>
				</port>
			</input>
			<output>
				<port id="2" precision="FP32" names="p2o.pd_op.conv2d.54.0">
					<dim>-1</dim>
					<dim>6</dim>
					<dim>1</dim>
					<dim>1</dim>
				</port>
			</output>
		</layer>
		<layer id="438" name="p2o.pd_op.reshape.14.0" type="Const" version="opset1">
			<data element_type="f32" shape="1, 6, 1, 1" offset="2202260" size="24" />
			<output>
				<port id="0" precision="FP32" names="p2o.pd_op.reshape.14.0">
					<dim>1</dim>
					<dim>6</dim>
					<dim>1</dim>
					<dim>1</dim>
				</port>
			</output>
		</layer>
		<layer id="439" name="p2o.pd_op.add.34.0" type="Add" version="opset1">
			<data auto_broadcast="numpy" />
			<input>
				<port id="0" precision="FP32">
					<dim>-1</dim>
					<dim>6</dim>
					<dim>1</dim>
					<dim>1</dim>
				</port>
				<port id="1" precision="FP32">
					<dim>1</dim>
					<dim>6</dim>
					<dim>1</dim>
					<dim>1</dim>
				</port>
			</input>
			<output>
				<port id="2" precision="FP32" names="Add.69,p2o.pd_op.add.34.0">
					<dim>-1</dim>
					<dim>6</dim>
					<dim>1</dim>
					<dim>1</dim>
				</port>
			</output>
		</layer>
		<layer id="440" name="Relu.19" type="ReLU" version="opset1">
			<input>
				<port id="0" precision="FP32">
					<dim>-1</dim>
					<dim>6</dim>
					<dim>1</dim>
					<dim>1</dim>
				</port>
			</input>
			<output>
				<port id="1" precision="FP32" names="p2o.pd_op.relu.19.0">
					<dim>-1</dim>
					<dim>6</dim>
					<dim>1</dim>
					<dim>1</dim>
				</port>
			</output>
		</layer>
		<layer id="441" name="conv2d_52.w_0" type="Const" version="opset1">
			<data element_type="f32" shape="24, 6, 1, 1" offset="2202284" size="576" />
			<output>
				<port id="0" precision="FP32" names="conv2d_52.w_0">
					<dim>24</dim>
					<dim>6</dim>
					<dim>1</dim>
					<dim>1</dim>
				</port>
			</output>
		</layer>
		<layer id="442" name="Conv.70" type="Convolution" version="opset1">
			<data strides="1, 1" dilations="1, 1" pads_begin="0, 0" pads_end="0, 0" auto_pad="explicit" />
			<input>
				<port id="0" precision="FP32">
					<dim>-1</dim>
					<dim>6</dim>
					<dim>1</dim>
					<dim>1</dim>
				</port>
				<port id="1" precision="FP32">
					<dim>24</dim>
					<dim>6</dim>
					<dim>1</dim>
					<dim>1</dim>
				</port>
			</input>
			<output>
				<port id="2" precision="FP32" names="p2o.pd_op.conv2d.55.0">
					<dim>-1</dim>
					<dim>24</dim>
					<dim>1</dim>
					<dim>1</dim>
				</port>
			</output>
		</layer>
		<layer id="443" name="p2o.pd_op.reshape.15.0" type="Const" version="opset1">
			<data element_type="f32" shape="1, 24, 1, 1" offset="2202860" size="96" />
			<output>
				<port id="0" precision="FP32" names="p2o.pd_op.reshape.15.0">
					<dim>1</dim>
					<dim>24</dim>
					<dim>1</dim>
					<dim>1</dim>
				</port>
			</output>
		</layer>
		<layer id="444" name="p2o.pd_op.add.35.0" type="Add" version="opset1">
			<data auto_broadcast="numpy" />
			<input>
				<port id="0" precision="FP32">
					<dim>-1</dim>
					<dim>24</dim>
					<dim>1</dim>
					<dim>1</dim>
				</port>
				<port id="1" precision="FP32">
					<dim>1</dim>
					<dim>24</dim>
					<dim>1</dim>
					<dim>1</dim>
				</port>
			</input>
			<output>
				<port id="2" precision="FP32" names="Add.71,p2o.pd_op.add.35.0">
					<dim>-1</dim>
					<dim>24</dim>
					<dim>1</dim>
					<dim>1</dim>
				</port>
			</output>
		</layer>
		<layer id="445" name="Constant_1428" type="Const" version="opset1">
			<data element_type="f32" shape="" offset="1772440" size="4" />
			<output>
				<port id="0" precision="FP32" />
			</output>
		</layer>
		<layer id="446" name="Constant_1429" type="Const" version="opset1">
			<data element_type="f32" shape="" offset="900" size="4" />
			<output>
				<port id="0" precision="FP32" />
			</output>
		</layer>
		<layer id="447" name="HardSigmoid.47" type="HardSigmoid" version="opset1">
			<input>
				<port id="0" precision="FP32">
					<dim>-1</dim>
					<dim>24</dim>
					<dim>1</dim>
					<dim>1</dim>
				</port>
				<port id="1" precision="FP32" />
				<port id="2" precision="FP32" />
			</input>
			<output>
				<port id="3" precision="FP32" names="p2o.pd_op.hardsigmoid.7.0">
					<dim>-1</dim>
					<dim>24</dim>
					<dim>1</dim>
					<dim>1</dim>
				</port>
			</output>
		</layer>
		<layer id="448" name="p2o.pd_op.multiply.7.0" type="Multiply" version="opset1">
			<data auto_broadcast="numpy" />
			<input>
				<port id="0" precision="FP32">
					<dim>-1</dim>
					<dim>24</dim>
					<dim>-1</dim>
					<dim>-1</dim>
				</port>
				<port id="1" precision="FP32">
					<dim>-1</dim>
					<dim>24</dim>
					<dim>1</dim>
					<dim>1</dim>
				</port>
			</input>
			<output>
				<port id="2" precision="FP32" names="Mul.35,p2o.pd_op.multiply.7.0">
					<dim>-1</dim>
					<dim>24</dim>
					<dim>-1</dim>
					<dim>-1</dim>
				</port>
			</output>
		</layer>
		<layer id="449" name="auto.cast.19" type="Add" version="opset1">
			<data auto_broadcast="numpy" />
			<input>
				<port id="0" precision="FP32">
					<dim>-1</dim>
					<dim>24</dim>
					<dim>-1</dim>
					<dim>-1</dim>
				</port>
				<port id="1" precision="FP32">
					<dim>-1</dim>
					<dim>24</dim>
					<dim>-1</dim>
					<dim>-1</dim>
				</port>
			</input>
			<output>
				<port id="2" precision="FP32" names="Add.73,auto.cast.19,p2o.builtin.combine.0.0_3,p2o.pd_op.add.36.0">
					<dim>-1</dim>
					<dim>24</dim>
					<dim>-1</dim>
					<dim>-1</dim>
				</port>
			</output>
		</layer>
		<layer id="450" name="p2o.pd_op.concat.0.0" type="Concat" version="opset1">
			<data axis="1" />
			<input>
				<port id="0" precision="FP32">
					<dim>-1</dim>
					<dim>24</dim>
					<dim>-1</dim>
					<dim>-1</dim>
				</port>
				<port id="1" precision="FP32">
					<dim>-1</dim>
					<dim>24</dim>
					<dim>-1</dim>
					<dim>-1</dim>
				</port>
				<port id="2" precision="FP32">
					<dim>-1</dim>
					<dim>24</dim>
					<dim>-1</dim>
					<dim>-1</dim>
				</port>
				<port id="3" precision="FP32">
					<dim>-1</dim>
					<dim>24</dim>
					<dim>-1</dim>
					<dim>-1</dim>
				</port>
			</input>
			<output>
				<port id="4" precision="FP32" names="Concat.1,p2o.pd_op.concat.0.0">
					<dim>-1</dim>
					<dim>96</dim>
					<dim>-1</dim>
					<dim>-1</dim>
				</port>
			</output>
		</layer>
		<layer id="451" name="Multiply_7711" type="Const" version="opset1">
			<data element_type="f32" shape="24, 96, 3, 3" offset="2202956" size="82944" />
			<output>
				<port id="0" precision="FP32">
					<dim>24</dim>
					<dim>96</dim>
					<dim>3</dim>
					<dim>3</dim>
				</port>
			</output>
		</layer>
		<layer id="452" name="Multiply_7519" type="Convolution" version="opset1">
			<data strides="1, 1" dilations="1, 1" pads_begin="1, 1" pads_end="1, 1" auto_pad="explicit" />
			<input>
				<port id="0" precision="FP32">
					<dim>-1</dim>
					<dim>96</dim>
					<dim>-1</dim>
					<dim>-1</dim>
				</port>
				<port id="1" precision="FP32">
					<dim>24</dim>
					<dim>96</dim>
					<dim>3</dim>
					<dim>3</dim>
				</port>
			</input>
			<output>
				<port id="2" precision="FP32">
					<dim>-1</dim>
					<dim>24</dim>
					<dim>-1</dim>
					<dim>-1</dim>
				</port>
			</output>
		</layer>
		<layer id="453" name="Constant_7524" type="Const" version="opset1">
			<data element_type="f32" shape="1, 24, 1, 1" offset="2285900" size="96" />
			<output>
				<port id="0" precision="FP32">
					<dim>1</dim>
					<dim>24</dim>
					<dim>1</dim>
					<dim>1</dim>
				</port>
			</output>
		</layer>
		<layer id="454" name="BatchNormalization.47" type="Add" version="opset1">
			<data auto_broadcast="numpy" />
			<input>
				<port id="0" precision="FP32">
					<dim>-1</dim>
					<dim>24</dim>
					<dim>-1</dim>
					<dim>-1</dim>
				</port>
				<port id="1" precision="FP32">
					<dim>1</dim>
					<dim>24</dim>
					<dim>1</dim>
					<dim>1</dim>
				</port>
			</input>
			<output>
				<port id="2" precision="FP32" names="p2o.pd_op.batch_norm_.47.0">
					<dim>-1</dim>
					<dim>24</dim>
					<dim>-1</dim>
					<dim>-1</dim>
				</port>
			</output>
		</layer>
		<layer id="455" name="auto.cast.20" type="ReLU" version="opset1">
			<input>
				<port id="0" precision="FP32">
					<dim>-1</dim>
					<dim>24</dim>
					<dim>-1</dim>
					<dim>-1</dim>
				</port>
			</input>
			<output>
				<port id="1" precision="FP32" names="auto.cast.20,p2o.pd_op.relu.20.0">
					<dim>-1</dim>
					<dim>24</dim>
					<dim>-1</dim>
					<dim>-1</dim>
				</port>
			</output>
		</layer>
		<layer id="456" name="Multiply_7715" type="Const" version="opset1">
			<data element_type="f32" shape="24, 24, 2, 2" offset="2285996" size="9216" />
			<output>
				<port id="0" precision="FP32">
					<dim>24</dim>
					<dim>24</dim>
					<dim>2</dim>
					<dim>2</dim>
				</port>
			</output>
		</layer>
		<layer id="457" name="Multiply_7529" type="ConvolutionBackpropData" version="opset1">
			<data strides="2, 2" dilations="1, 1" pads_begin="0, 0" pads_end="0, 0" auto_pad="explicit" output_padding="0, 0" />
			<input>
				<port id="0" precision="FP32">
					<dim>-1</dim>
					<dim>24</dim>
					<dim>-1</dim>
					<dim>-1</dim>
				</port>
				<port id="1" precision="FP32">
					<dim>24</dim>
					<dim>24</dim>
					<dim>2</dim>
					<dim>2</dim>
				</port>
			</input>
			<output>
				<port id="2" precision="FP32">
					<dim>-1</dim>
					<dim>24</dim>
					<dim>-1</dim>
					<dim>-1</dim>
				</port>
			</output>
		</layer>
		<layer id="458" name="Constant_7534" type="Const" version="opset1">
			<data element_type="f32" shape="1, 24, 1, 1" offset="2295212" size="96" />
			<output>
				<port id="0" precision="FP32">
					<dim>1</dim>
					<dim>24</dim>
					<dim>1</dim>
					<dim>1</dim>
				</port>
			</output>
		</layer>
		<layer id="459" name="BatchNormalization.48" type="Add" version="opset1">
			<data auto_broadcast="numpy" />
			<input>
				<port id="0" precision="FP32">
					<dim>-1</dim>
					<dim>24</dim>
					<dim>-1</dim>
					<dim>-1</dim>
				</port>
				<port id="1" precision="FP32">
					<dim>1</dim>
					<dim>24</dim>
					<dim>1</dim>
					<dim>1</dim>
				</port>
			</input>
			<output>
				<port id="2" precision="FP32" names="p2o.pd_op.batch_norm_.48.0">
					<dim>-1</dim>
					<dim>24</dim>
					<dim>-1</dim>
					<dim>-1</dim>
				</port>
			</output>
		</layer>
		<layer id="460" name="auto.cast.23" type="ReLU" version="opset1">
			<input>
				<port id="0" precision="FP32">
					<dim>-1</dim>
					<dim>24</dim>
					<dim>-1</dim>
					<dim>-1</dim>
				</port>
			</input>
			<output>
				<port id="1" precision="FP32" names="auto.cast.23,p2o.pd_op.relu.21.0">
					<dim>-1</dim>
					<dim>24</dim>
					<dim>-1</dim>
					<dim>-1</dim>
				</port>
			</output>
		</layer>
		<layer id="461" name="auto.cast.24" type="Const" version="opset1">
			<data element_type="f32" shape="24, 1, 2, 2" offset="2295308" size="384" />
			<output>
				<port id="0" precision="FP32" names="auto.cast.24">
					<dim>24</dim>
					<dim>1</dim>
					<dim>2</dim>
					<dim>2</dim>
				</port>
			</output>
		</layer>
		<layer id="462" name="p2o.pd_op.conv2d_transpose.1.0" type="ConvolutionBackpropData" version="opset1">
			<data strides="2, 2" dilations="1, 1" pads_begin="0, 0" pads_end="0, 0" auto_pad="explicit" output_padding="0, 0" />
			<input>
				<port id="0" precision="FP32">
					<dim>-1</dim>
					<dim>24</dim>
					<dim>-1</dim>
					<dim>-1</dim>
				</port>
				<port id="1" precision="FP32">
					<dim>24</dim>
					<dim>1</dim>
					<dim>2</dim>
					<dim>2</dim>
				</port>
			</input>
			<output>
				<port id="2" precision="FP32" names="ConvTranspose.3,p2o.pd_op.conv2d_transpose.1.0">
					<dim>-1</dim>
					<dim>1</dim>
					<dim>-1</dim>
					<dim>-1</dim>
				</port>
			</output>
		</layer>
		<layer id="463" name="p2o.pd_op.reshape.17.0" type="Const" version="opset1">
			<data element_type="f32" shape="1, 1, 1, 1" offset="2295692" size="4" />
			<output>
				<port id="0" precision="FP32" names="p2o.pd_op.reshape.17.0">
					<dim>1</dim>
					<dim>1</dim>
					<dim>1</dim>
					<dim>1</dim>
				</port>
			</output>
		</layer>
		<layer id="464" name="p2o.pd_op.add.38.0" type="Add" version="opset1">
			<data auto_broadcast="numpy" />
			<input>
				<port id="0" precision="FP32">
					<dim>-1</dim>
					<dim>1</dim>
					<dim>-1</dim>
					<dim>-1</dim>
				</port>
				<port id="1" precision="FP32">
					<dim>1</dim>
					<dim>1</dim>
					<dim>1</dim>
					<dim>1</dim>
				</port>
			</input>
			<output>
				<port id="2" precision="FP32" names="Add.77,p2o.pd_op.add.38.0">
					<dim>-1</dim>
					<dim>1</dim>
					<dim>-1</dim>
					<dim>-1</dim>
				</port>
			</output>
		</layer>
		<layer id="465" name="fetch_name_0" type="Sigmoid" version="opset1">
			<input>
				<port id="0" precision="FP32">
					<dim>-1</dim>
					<dim>1</dim>
					<dim>-1</dim>
					<dim>-1</dim>
				</port>
			</input>
			<output>
				<port id="1" precision="FP32" names="fetch_name_0">
					<dim>-1</dim>
					<dim>1</dim>
					<dim>-1</dim>
					<dim>-1</dim>
				</port>
			</output>
		</layer>
		<layer id="466" name="fetch_name_0/sink_port_0" type="Result" version="opset1">
			<input>
				<port id="0" precision="FP32">
					<dim>-1</dim>
					<dim>1</dim>
					<dim>-1</dim>
					<dim>-1</dim>
				</port>
			</input>
		</layer>
	</layers>
	<edges>
		<edge from-layer="0" from-port="0" to-layer="2" to-port="0" />
		<edge from-layer="1" from-port="0" to-layer="2" to-port="1" />
		<edge from-layer="2" from-port="2" to-layer="4" to-port="0" />
		<edge from-layer="3" from-port="0" to-layer="4" to-port="1" />
		<edge from-layer="4" from-port="2" to-layer="7" to-port="0" />
		<edge from-layer="4" from-port="2" to-layer="8" to-port="1" />
		<edge from-layer="5" from-port="0" to-layer="7" to-port="1" />
		<edge from-layer="6" from-port="0" to-layer="7" to-port="2" />
		<edge from-layer="7" from-port="3" to-layer="8" to-port="0" />
		<edge from-layer="8" from-port="2" to-layer="23" to-port="0" />
		<edge from-layer="8" from-port="2" to-layer="10" to-port="0" />
		<edge from-layer="9" from-port="0" to-layer="10" to-port="1" />
		<edge from-layer="10" from-port="2" to-layer="12" to-port="0" />
		<edge from-layer="11" from-port="0" to-layer="12" to-port="1" />
		<edge from-layer="12" from-port="2" to-layer="13" to-port="0" />
		<edge from-layer="13" from-port="1" to-layer="15" to-port="0" />
		<edge from-layer="14" from-port="0" to-layer="15" to-port="1" />
		<edge from-layer="15" from-port="2" to-layer="17" to-port="0" />
		<edge from-layer="16" from-port="0" to-layer="17" to-port="1" />
		<edge from-layer="17" from-port="2" to-layer="18" to-port="0" />
		<edge from-layer="18" from-port="1" to-layer="20" to-port="0" />
		<edge from-layer="19" from-port="0" to-layer="20" to-port="1" />
		<edge from-layer="20" from-port="2" to-layer="22" to-port="0" />
		<edge from-layer="21" from-port="0" to-layer="22" to-port="1" />
		<edge from-layer="22" from-port="2" to-layer="23" to-port="1" />
		<edge from-layer="23" from-port="2" to-layer="25" to-port="0" />
		<edge from-layer="24" from-port="0" to-layer="25" to-port="1" />
		<edge from-layer="25" from-port="2" to-layer="27" to-port="0" />
		<edge from-layer="26" from-port="0" to-layer="27" to-port="1" />
		<edge from-layer="27" from-port="2" to-layer="28" to-port="0" />
		<edge from-layer="28" from-port="1" to-layer="30" to-port="0" />
		<edge from-layer="29" from-port="0" to-layer="30" to-port="1" />
		<edge from-layer="30" from-port="2" to-layer="32" to-port="0" />
		<edge from-layer="31" from-port="0" to-layer="32" to-port="1" />
		<edge from-layer="32" from-port="2" to-layer="33" to-port="0" />
		<edge from-layer="33" from-port="1" to-layer="35" to-port="0" />
		<edge from-layer="34" from-port="0" to-layer="35" to-port="1" />
		<edge from-layer="35" from-port="2" to-layer="37" to-port="0" />
		<edge from-layer="36" from-port="0" to-layer="37" to-port="1" />
		<edge from-layer="37" from-port="2" to-layer="52" to-port="0" />
		<edge from-layer="37" from-port="2" to-layer="39" to-port="0" />
		<edge from-layer="38" from-port="0" to-layer="39" to-port="1" />
		<edge from-layer="39" from-port="2" to-layer="41" to-port="0" />
		<edge from-layer="40" from-port="0" to-layer="41" to-port="1" />
		<edge from-layer="41" from-port="2" to-layer="42" to-port="0" />
		<edge from-layer="42" from-port="1" to-layer="44" to-port="0" />
		<edge from-layer="43" from-port="0" to-layer="44" to-port="1" />
		<edge from-layer="44" from-port="2" to-layer="46" to-port="0" />
		<edge from-layer="45" from-port="0" to-layer="46" to-port="1" />
		<edge from-layer="46" from-port="2" to-layer="47" to-port="0" />
		<edge from-layer="47" from-port="1" to-layer="49" to-port="0" />
		<edge from-layer="48" from-port="0" to-layer="49" to-port="1" />
		<edge from-layer="49" from-port="2" to-layer="51" to-port="0" />
		<edge from-layer="50" from-port="0" to-layer="51" to-port="1" />
		<edge from-layer="51" from-port="2" to-layer="52" to-port="1" />
		<edge from-layer="52" from-port="2" to-layer="54" to-port="0" />
		<edge from-layer="52" from-port="2" to-layer="412" to-port="0" />
		<edge from-layer="53" from-port="0" to-layer="54" to-port="1" />
		<edge from-layer="54" from-port="2" to-layer="56" to-port="0" />
		<edge from-layer="55" from-port="0" to-layer="56" to-port="1" />
		<edge from-layer="56" from-port="2" to-layer="57" to-port="0" />
		<edge from-layer="57" from-port="1" to-layer="59" to-port="0" />
		<edge from-layer="58" from-port="0" to-layer="59" to-port="1" />
		<edge from-layer="59" from-port="2" to-layer="61" to-port="0" />
		<edge from-layer="60" from-port="0" to-layer="61" to-port="1" />
		<edge from-layer="61" from-port="2" to-layer="62" to-port="0" />
		<edge from-layer="62" from-port="1" to-layer="64" to-port="0" />
		<edge from-layer="63" from-port="0" to-layer="64" to-port="1" />
		<edge from-layer="64" from-port="2" to-layer="66" to-port="0" />
		<edge from-layer="65" from-port="0" to-layer="66" to-port="1" />
		<edge from-layer="66" from-port="2" to-layer="68" to-port="0" />
		<edge from-layer="66" from-port="2" to-layer="81" to-port="0" />
		<edge from-layer="67" from-port="0" to-layer="68" to-port="1" />
		<edge from-layer="68" from-port="2" to-layer="70" to-port="0" />
		<edge from-layer="69" from-port="0" to-layer="70" to-port="1" />
		<edge from-layer="70" from-port="2" to-layer="71" to-port="0" />
		<edge from-layer="71" from-port="1" to-layer="73" to-port="0" />
		<edge from-layer="72" from-port="0" to-layer="73" to-port="1" />
		<edge from-layer="73" from-port="2" to-layer="75" to-port="0" />
		<edge from-layer="74" from-port="0" to-layer="75" to-port="1" />
		<edge from-layer="75" from-port="2" to-layer="76" to-port="0" />
		<edge from-layer="76" from-port="1" to-layer="78" to-port="0" />
		<edge from-layer="77" from-port="0" to-layer="78" to-port="1" />
		<edge from-layer="78" from-port="2" to-layer="80" to-port="0" />
		<edge from-layer="79" from-port="0" to-layer="80" to-port="1" />
		<edge from-layer="80" from-port="2" to-layer="81" to-port="1" />
		<edge from-layer="81" from-port="2" to-layer="96" to-port="0" />
		<edge from-layer="81" from-port="2" to-layer="83" to-port="0" />
		<edge from-layer="82" from-port="0" to-layer="83" to-port="1" />
		<edge from-layer="83" from-port="2" to-layer="85" to-port="0" />
		<edge from-layer="84" from-port="0" to-layer="85" to-port="1" />
		<edge from-layer="85" from-port="2" to-layer="86" to-port="0" />
		<edge from-layer="86" from-port="1" to-layer="88" to-port="0" />
		<edge from-layer="87" from-port="0" to-layer="88" to-port="1" />
		<edge from-layer="88" from-port="2" to-layer="90" to-port="0" />
		<edge from-layer="89" from-port="0" to-layer="90" to-port="1" />
		<edge from-layer="90" from-port="2" to-layer="91" to-port="0" />
		<edge from-layer="91" from-port="1" to-layer="93" to-port="0" />
		<edge from-layer="92" from-port="0" to-layer="93" to-port="1" />
		<edge from-layer="93" from-port="2" to-layer="95" to-port="0" />
		<edge from-layer="94" from-port="0" to-layer="95" to-port="1" />
		<edge from-layer="95" from-port="2" to-layer="96" to-port="1" />
		<edge from-layer="96" from-port="2" to-layer="98" to-port="0" />
		<edge from-layer="96" from-port="2" to-layer="371" to-port="0" />
		<edge from-layer="97" from-port="0" to-layer="98" to-port="1" />
		<edge from-layer="98" from-port="2" to-layer="100" to-port="0" />
		<edge from-layer="99" from-port="0" to-layer="100" to-port="1" />
		<edge from-layer="100" from-port="2" to-layer="104" to-port="1" />
		<edge from-layer="100" from-port="2" to-layer="103" to-port="0" />
		<edge from-layer="101" from-port="0" to-layer="103" to-port="1" />
		<edge from-layer="102" from-port="0" to-layer="103" to-port="2" />
		<edge from-layer="103" from-port="3" to-layer="104" to-port="0" />
		<edge from-layer="104" from-port="2" to-layer="106" to-port="0" />
		<edge from-layer="105" from-port="0" to-layer="106" to-port="1" />
		<edge from-layer="106" from-port="2" to-layer="108" to-port="0" />
		<edge from-layer="107" from-port="0" to-layer="108" to-port="1" />
		<edge from-layer="108" from-port="2" to-layer="111" to-port="0" />
		<edge from-layer="108" from-port="2" to-layer="112" to-port="1" />
		<edge from-layer="109" from-port="0" to-layer="111" to-port="1" />
		<edge from-layer="110" from-port="0" to-layer="111" to-port="2" />
		<edge from-layer="111" from-port="3" to-layer="112" to-port="0" />
		<edge from-layer="112" from-port="2" to-layer="114" to-port="0" />
		<edge from-layer="113" from-port="0" to-layer="114" to-port="1" />
		<edge from-layer="114" from-port="2" to-layer="116" to-port="0" />
		<edge from-layer="115" from-port="0" to-layer="116" to-port="1" />
		<edge from-layer="116" from-port="2" to-layer="118" to-port="0" />
		<edge from-layer="116" from-port="2" to-layer="137" to-port="0" />
		<edge from-layer="117" from-port="0" to-layer="118" to-port="1" />
		<edge from-layer="118" from-port="2" to-layer="120" to-port="0" />
		<edge from-layer="119" from-port="0" to-layer="120" to-port="1" />
		<edge from-layer="120" from-port="2" to-layer="124" to-port="1" />
		<edge from-layer="120" from-port="2" to-layer="123" to-port="0" />
		<edge from-layer="121" from-port="0" to-layer="123" to-port="1" />
		<edge from-layer="122" from-port="0" to-layer="123" to-port="2" />
		<edge from-layer="123" from-port="3" to-layer="124" to-port="0" />
		<edge from-layer="124" from-port="2" to-layer="126" to-port="0" />
		<edge from-layer="125" from-port="0" to-layer="126" to-port="1" />
		<edge from-layer="126" from-port="2" to-layer="128" to-port="0" />
		<edge from-layer="127" from-port="0" to-layer="128" to-port="1" />
		<edge from-layer="128" from-port="2" to-layer="131" to-port="0" />
		<edge from-layer="128" from-port="2" to-layer="132" to-port="1" />
		<edge from-layer="129" from-port="0" to-layer="131" to-port="1" />
		<edge from-layer="130" from-port="0" to-layer="131" to-port="2" />
		<edge from-layer="131" from-port="3" to-layer="132" to-port="0" />
		<edge from-layer="132" from-port="2" to-layer="134" to-port="0" />
		<edge from-layer="133" from-port="0" to-layer="134" to-port="1" />
		<edge from-layer="134" from-port="2" to-layer="136" to-port="0" />
		<edge from-layer="135" from-port="0" to-layer="136" to-port="1" />
		<edge from-layer="136" from-port="2" to-layer="137" to-port="1" />
		<edge from-layer="137" from-port="2" to-layer="139" to-port="0" />
		<edge from-layer="137" from-port="2" to-layer="158" to-port="0" />
		<edge from-layer="138" from-port="0" to-layer="139" to-port="1" />
		<edge from-layer="139" from-port="2" to-layer="141" to-port="0" />
		<edge from-layer="140" from-port="0" to-layer="141" to-port="1" />
		<edge from-layer="141" from-port="2" to-layer="144" to-port="0" />
		<edge from-layer="141" from-port="2" to-layer="145" to-port="1" />
		<edge from-layer="142" from-port="0" to-layer="144" to-port="1" />
		<edge from-layer="143" from-port="0" to-layer="144" to-port="2" />
		<edge from-layer="144" from-port="3" to-layer="145" to-port="0" />
		<edge from-layer="145" from-port="2" to-layer="147" to-port="0" />
		<edge from-layer="146" from-port="0" to-layer="147" to-port="1" />
		<edge from-layer="147" from-port="2" to-layer="149" to-port="0" />
		<edge from-layer="148" from-port="0" to-layer="149" to-port="1" />
		<edge from-layer="149" from-port="2" to-layer="153" to-port="1" />
		<edge from-layer="149" from-port="2" to-layer="152" to-port="0" />
		<edge from-layer="150" from-port="0" to-layer="152" to-port="1" />
		<edge from-layer="151" from-port="0" to-layer="152" to-port="2" />
		<edge from-layer="152" from-port="3" to-layer="153" to-port="0" />
		<edge from-layer="153" from-port="2" to-layer="155" to-port="0" />
		<edge from-layer="154" from-port="0" to-layer="155" to-port="1" />
		<edge from-layer="155" from-port="2" to-layer="157" to-port="0" />
		<edge from-layer="156" from-port="0" to-layer="157" to-port="1" />
		<edge from-layer="157" from-port="2" to-layer="158" to-port="1" />
		<edge from-layer="158" from-port="2" to-layer="179" to-port="0" />
		<edge from-layer="158" from-port="2" to-layer="160" to-port="0" />
		<edge from-layer="159" from-port="0" to-layer="160" to-port="1" />
		<edge from-layer="160" from-port="2" to-layer="162" to-port="0" />
		<edge from-layer="161" from-port="0" to-layer="162" to-port="1" />
		<edge from-layer="162" from-port="2" to-layer="166" to-port="1" />
		<edge from-layer="162" from-port="2" to-layer="165" to-port="0" />
		<edge from-layer="163" from-port="0" to-layer="165" to-port="1" />
		<edge from-layer="164" from-port="0" to-layer="165" to-port="2" />
		<edge from-layer="165" from-port="3" to-layer="166" to-port="0" />
		<edge from-layer="166" from-port="2" to-layer="168" to-port="0" />
		<edge from-layer="167" from-port="0" to-layer="168" to-port="1" />
		<edge from-layer="168" from-port="2" to-layer="170" to-port="0" />
		<edge from-layer="169" from-port="0" to-layer="170" to-port="1" />
		<edge from-layer="170" from-port="2" to-layer="173" to-port="0" />
		<edge from-layer="170" from-port="2" to-layer="174" to-port="1" />
		<edge from-layer="171" from-port="0" to-layer="173" to-port="1" />
		<edge from-layer="172" from-port="0" to-layer="173" to-port="2" />
		<edge from-layer="173" from-port="3" to-layer="174" to-port="0" />
		<edge from-layer="174" from-port="2" to-layer="176" to-port="0" />
		<edge from-layer="175" from-port="0" to-layer="176" to-port="1" />
		<edge from-layer="176" from-port="2" to-layer="178" to-port="0" />
		<edge from-layer="177" from-port="0" to-layer="178" to-port="1" />
		<edge from-layer="178" from-port="2" to-layer="179" to-port="1" />
		<edge from-layer="179" from-port="2" to-layer="181" to-port="0" />
		<edge from-layer="180" from-port="0" to-layer="181" to-port="1" />
		<edge from-layer="181" from-port="2" to-layer="183" to-port="0" />
		<edge from-layer="182" from-port="0" to-layer="183" to-port="1" />
		<edge from-layer="183" from-port="2" to-layer="187" to-port="1" />
		<edge from-layer="183" from-port="2" to-layer="186" to-port="0" />
		<edge from-layer="184" from-port="0" to-layer="186" to-port="1" />
		<edge from-layer="185" from-port="0" to-layer="186" to-port="2" />
		<edge from-layer="186" from-port="3" to-layer="187" to-port="0" />
		<edge from-layer="187" from-port="2" to-layer="189" to-port="0" />
		<edge from-layer="188" from-port="0" to-layer="189" to-port="1" />
		<edge from-layer="189" from-port="2" to-layer="191" to-port="0" />
		<edge from-layer="190" from-port="0" to-layer="191" to-port="1" />
		<edge from-layer="191" from-port="2" to-layer="194" to-port="0" />
		<edge from-layer="191" from-port="2" to-layer="195" to-port="1" />
		<edge from-layer="192" from-port="0" to-layer="194" to-port="1" />
		<edge from-layer="193" from-port="0" to-layer="194" to-port="2" />
		<edge from-layer="194" from-port="3" to-layer="195" to-port="0" />
		<edge from-layer="195" from-port="2" to-layer="197" to-port="0" />
		<edge from-layer="196" from-port="0" to-layer="197" to-port="1" />
		<edge from-layer="197" from-port="2" to-layer="199" to-port="0" />
		<edge from-layer="198" from-port="0" to-layer="199" to-port="1" />
		<edge from-layer="199" from-port="2" to-layer="220" to-port="0" />
		<edge from-layer="199" from-port="2" to-layer="201" to-port="0" />
		<edge from-layer="200" from-port="0" to-layer="201" to-port="1" />
		<edge from-layer="201" from-port="2" to-layer="203" to-port="0" />
		<edge from-layer="202" from-port="0" to-layer="203" to-port="1" />
		<edge from-layer="203" from-port="2" to-layer="206" to-port="0" />
		<edge from-layer="203" from-port="2" to-layer="207" to-port="1" />
		<edge from-layer="204" from-port="0" to-layer="206" to-port="1" />
		<edge from-layer="205" from-port="0" to-layer="206" to-port="2" />
		<edge from-layer="206" from-port="3" to-layer="207" to-port="0" />
		<edge from-layer="207" from-port="2" to-layer="209" to-port="0" />
		<edge from-layer="208" from-port="0" to-layer="209" to-port="1" />
		<edge from-layer="209" from-port="2" to-layer="211" to-port="0" />
		<edge from-layer="210" from-port="0" to-layer="211" to-port="1" />
		<edge from-layer="211" from-port="2" to-layer="214" to-port="0" />
		<edge from-layer="211" from-port="2" to-layer="215" to-port="1" />
		<edge from-layer="212" from-port="0" to-layer="214" to-port="1" />
		<edge from-layer="213" from-port="0" to-layer="214" to-port="2" />
		<edge from-layer="214" from-port="3" to-layer="215" to-port="0" />
		<edge from-layer="215" from-port="2" to-layer="217" to-port="0" />
		<edge from-layer="216" from-port="0" to-layer="217" to-port="1" />
		<edge from-layer="217" from-port="2" to-layer="219" to-port="0" />
		<edge from-layer="218" from-port="0" to-layer="219" to-port="1" />
		<edge from-layer="219" from-port="2" to-layer="220" to-port="1" />
		<edge from-layer="220" from-port="2" to-layer="330" to-port="0" />
		<edge from-layer="220" from-port="2" to-layer="222" to-port="0" />
		<edge from-layer="221" from-port="0" to-layer="222" to-port="1" />
		<edge from-layer="222" from-port="2" to-layer="224" to-port="0" />
		<edge from-layer="223" from-port="0" to-layer="224" to-port="1" />
		<edge from-layer="224" from-port="2" to-layer="227" to-port="0" />
		<edge from-layer="224" from-port="2" to-layer="228" to-port="1" />
		<edge from-layer="225" from-port="0" to-layer="227" to-port="1" />
		<edge from-layer="226" from-port="0" to-layer="227" to-port="2" />
		<edge from-layer="227" from-port="3" to-layer="228" to-port="0" />
		<edge from-layer="228" from-port="2" to-layer="230" to-port="0" />
		<edge from-layer="229" from-port="0" to-layer="230" to-port="1" />
		<edge from-layer="230" from-port="2" to-layer="232" to-port="0" />
		<edge from-layer="231" from-port="0" to-layer="232" to-port="1" />
		<edge from-layer="232" from-port="2" to-layer="235" to-port="0" />
		<edge from-layer="232" from-port="2" to-layer="236" to-port="1" />
		<edge from-layer="233" from-port="0" to-layer="235" to-port="1" />
		<edge from-layer="234" from-port="0" to-layer="235" to-port="2" />
		<edge from-layer="235" from-port="3" to-layer="236" to-port="0" />
		<edge from-layer="236" from-port="2" to-layer="238" to-port="0" />
		<edge from-layer="237" from-port="0" to-layer="238" to-port="1" />
		<edge from-layer="238" from-port="2" to-layer="240" to-port="0" />
		<edge from-layer="239" from-port="0" to-layer="240" to-port="1" />
		<edge from-layer="240" from-port="2" to-layer="242" to-port="0" />
		<edge from-layer="240" from-port="2" to-layer="261" to-port="0" />
		<edge from-layer="241" from-port="0" to-layer="242" to-port="1" />
		<edge from-layer="242" from-port="2" to-layer="244" to-port="0" />
		<edge from-layer="243" from-port="0" to-layer="244" to-port="1" />
		<edge from-layer="244" from-port="2" to-layer="248" to-port="1" />
		<edge from-layer="244" from-port="2" to-layer="247" to-port="0" />
		<edge from-layer="245" from-port="0" to-layer="247" to-port="1" />
		<edge from-layer="246" from-port="0" to-layer="247" to-port="2" />
		<edge from-layer="247" from-port="3" to-layer="248" to-port="0" />
		<edge from-layer="248" from-port="2" to-layer="250" to-port="0" />
		<edge from-layer="249" from-port="0" to-layer="250" to-port="1" />
		<edge from-layer="250" from-port="2" to-layer="252" to-port="0" />
		<edge from-layer="251" from-port="0" to-layer="252" to-port="1" />
		<edge from-layer="252" from-port="2" to-layer="255" to-port="0" />
		<edge from-layer="252" from-port="2" to-layer="256" to-port="1" />
		<edge from-layer="253" from-port="0" to-layer="255" to-port="1" />
		<edge from-layer="254" from-port="0" to-layer="255" to-port="2" />
		<edge from-layer="255" from-port="3" to-layer="256" to-port="0" />
		<edge from-layer="256" from-port="2" to-layer="258" to-port="0" />
		<edge from-layer="257" from-port="0" to-layer="258" to-port="1" />
		<edge from-layer="258" from-port="2" to-layer="260" to-port="0" />
		<edge from-layer="259" from-port="0" to-layer="260" to-port="1" />
		<edge from-layer="260" from-port="2" to-layer="261" to-port="1" />
		<edge from-layer="261" from-port="2" to-layer="263" to-port="0" />
		<edge from-layer="261" from-port="2" to-layer="282" to-port="0" />
		<edge from-layer="262" from-port="0" to-layer="263" to-port="1" />
		<edge from-layer="263" from-port="2" to-layer="265" to-port="0" />
		<edge from-layer="264" from-port="0" to-layer="265" to-port="1" />
		<edge from-layer="265" from-port="2" to-layer="268" to-port="0" />
		<edge from-layer="265" from-port="2" to-layer="269" to-port="1" />
		<edge from-layer="266" from-port="0" to-layer="268" to-port="1" />
		<edge from-layer="267" from-port="0" to-layer="268" to-port="2" />
		<edge from-layer="268" from-port="3" to-layer="269" to-port="0" />
		<edge from-layer="269" from-port="2" to-layer="271" to-port="0" />
		<edge from-layer="270" from-port="0" to-layer="271" to-port="1" />
		<edge from-layer="271" from-port="2" to-layer="273" to-port="0" />
		<edge from-layer="272" from-port="0" to-layer="273" to-port="1" />
		<edge from-layer="273" from-port="2" to-layer="276" to-port="0" />
		<edge from-layer="273" from-port="2" to-layer="277" to-port="1" />
		<edge from-layer="274" from-port="0" to-layer="276" to-port="1" />
		<edge from-layer="275" from-port="0" to-layer="276" to-port="2" />
		<edge from-layer="276" from-port="3" to-layer="277" to-port="0" />
		<edge from-layer="277" from-port="2" to-layer="279" to-port="0" />
		<edge from-layer="278" from-port="0" to-layer="279" to-port="1" />
		<edge from-layer="279" from-port="2" to-layer="281" to-port="0" />
		<edge from-layer="280" from-port="0" to-layer="281" to-port="1" />
		<edge from-layer="281" from-port="2" to-layer="282" to-port="1" />
		<edge from-layer="282" from-port="2" to-layer="284" to-port="0" />
		<edge from-layer="283" from-port="0" to-layer="284" to-port="1" />
		<edge from-layer="284" from-port="2" to-layer="286" to-port="0" />
		<edge from-layer="285" from-port="0" to-layer="286" to-port="1" />
		<edge from-layer="286" from-port="2" to-layer="289" to-port="0" />
		<edge from-layer="286" from-port="2" to-layer="290" to-port="1" />
		<edge from-layer="287" from-port="0" to-layer="289" to-port="1" />
		<edge from-layer="288" from-port="0" to-layer="289" to-port="2" />
		<edge from-layer="289" from-port="3" to-layer="290" to-port="0" />
		<edge from-layer="290" from-port="2" to-layer="292" to-port="0" />
		<edge from-layer="291" from-port="0" to-layer="292" to-port="1" />
		<edge from-layer="292" from-port="2" to-layer="294" to-port="0" />
		<edge from-layer="292" from-port="2" to-layer="308" to-port="0" />
		<edge from-layer="292" from-port="2" to-layer="307" to-port="0" />
		<edge from-layer="293" from-port="0" to-layer="294" to-port="1" />
		<edge from-layer="294" from-port="2" to-layer="296" to-port="0" />
		<edge from-layer="295" from-port="0" to-layer="296" to-port="1" />
		<edge from-layer="296" from-port="2" to-layer="298" to-port="0" />
		<edge from-layer="297" from-port="0" to-layer="298" to-port="1" />
		<edge from-layer="298" from-port="2" to-layer="299" to-port="0" />
		<edge from-layer="299" from-port="1" to-layer="301" to-port="0" />
		<edge from-layer="300" from-port="0" to-layer="301" to-port="1" />
		<edge from-layer="301" from-port="2" to-layer="303" to-port="0" />
		<edge from-layer="302" from-port="0" to-layer="303" to-port="1" />
		<edge from-layer="303" from-port="2" to-layer="306" to-port="0" />
		<edge from-layer="304" from-port="0" to-layer="306" to-port="1" />
		<edge from-layer="305" from-port="0" to-layer="306" to-port="2" />
		<edge from-layer="306" from-port="3" to-layer="307" to-port="1" />
		<edge from-layer="307" from-port="2" to-layer="308" to-port="1" />
		<edge from-layer="308" from-port="2" to-layer="348" to-port="0" />
		<edge from-layer="308" from-port="2" to-layer="310" to-port="0" />
		<edge from-layer="309" from-port="0" to-layer="310" to-port="1" />
		<edge from-layer="310" from-port="2" to-layer="312" to-port="0" />
		<edge from-layer="310" from-port="2" to-layer="326" to-port="0" />
		<edge from-layer="310" from-port="2" to-layer="325" to-port="0" />
		<edge from-layer="311" from-port="0" to-layer="312" to-port="1" />
		<edge from-layer="312" from-port="2" to-layer="314" to-port="0" />
		<edge from-layer="313" from-port="0" to-layer="314" to-port="1" />
		<edge from-layer="314" from-port="2" to-layer="316" to-port="0" />
		<edge from-layer="315" from-port="0" to-layer="316" to-port="1" />
		<edge from-layer="316" from-port="2" to-layer="317" to-port="0" />
		<edge from-layer="317" from-port="1" to-layer="319" to-port="0" />
		<edge from-layer="318" from-port="0" to-layer="319" to-port="1" />
		<edge from-layer="319" from-port="2" to-layer="321" to-port="0" />
		<edge from-layer="320" from-port="0" to-layer="321" to-port="1" />
		<edge from-layer="321" from-port="2" to-layer="324" to-port="0" />
		<edge from-layer="322" from-port="0" to-layer="324" to-port="1" />
		<edge from-layer="323" from-port="0" to-layer="324" to-port="2" />
		<edge from-layer="324" from-port="3" to-layer="325" to-port="1" />
		<edge from-layer="325" from-port="2" to-layer="326" to-port="1" />
		<edge from-layer="326" from-port="2" to-layer="328" to-port="0" />
		<edge from-layer="327" from-port="0" to-layer="328" to-port="1" />
		<edge from-layer="328" from-port="2" to-layer="450" to-port="0" />
		<edge from-layer="329" from-port="0" to-layer="330" to-port="1" />
		<edge from-layer="330" from-port="2" to-layer="332" to-port="0" />
		<edge from-layer="330" from-port="2" to-layer="346" to-port="0" />
		<edge from-layer="330" from-port="2" to-layer="345" to-port="0" />
		<edge from-layer="331" from-port="0" to-layer="332" to-port="1" />
		<edge from-layer="332" from-port="2" to-layer="334" to-port="0" />
		<edge from-layer="333" from-port="0" to-layer="334" to-port="1" />
		<edge from-layer="334" from-port="2" to-layer="336" to-port="0" />
		<edge from-layer="335" from-port="0" to-layer="336" to-port="1" />
		<edge from-layer="336" from-port="2" to-layer="337" to-port="0" />
		<edge from-layer="337" from-port="1" to-layer="339" to-port="0" />
		<edge from-layer="338" from-port="0" to-layer="339" to-port="1" />
		<edge from-layer="339" from-port="2" to-layer="341" to-port="0" />
		<edge from-layer="340" from-port="0" to-layer="341" to-port="1" />
		<edge from-layer="341" from-port="2" to-layer="344" to-port="0" />
		<edge from-layer="342" from-port="0" to-layer="344" to-port="1" />
		<edge from-layer="343" from-port="0" to-layer="344" to-port="2" />
		<edge from-layer="344" from-port="3" to-layer="345" to-port="1" />
		<edge from-layer="345" from-port="2" to-layer="346" to-port="1" />
		<edge from-layer="346" from-port="2" to-layer="349" to-port="0" />
		<edge from-layer="347" from-port="0" to-layer="348" to-port="1" />
		<edge from-layer="348" from-port="2" to-layer="349" to-port="1" />
		<edge from-layer="349" from-port="2" to-layer="351" to-port="0" />
		<edge from-layer="349" from-port="2" to-layer="389" to-port="0" />
		<edge from-layer="350" from-port="0" to-layer="351" to-port="1" />
		<edge from-layer="351" from-port="2" to-layer="353" to-port="0" />
		<edge from-layer="351" from-port="2" to-layer="367" to-port="0" />
		<edge from-layer="351" from-port="2" to-layer="366" to-port="0" />
		<edge from-layer="352" from-port="0" to-layer="353" to-port="1" />
		<edge from-layer="353" from-port="2" to-layer="355" to-port="0" />
		<edge from-layer="354" from-port="0" to-layer="355" to-port="1" />
		<edge from-layer="355" from-port="2" to-layer="357" to-port="0" />
		<edge from-layer="356" from-port="0" to-layer="357" to-port="1" />
		<edge from-layer="357" from-port="2" to-layer="358" to-port="0" />
		<edge from-layer="358" from-port="1" to-layer="360" to-port="0" />
		<edge from-layer="359" from-port="0" to-layer="360" to-port="1" />
		<edge from-layer="360" from-port="2" to-layer="362" to-port="0" />
		<edge from-layer="361" from-port="0" to-layer="362" to-port="1" />
		<edge from-layer="362" from-port="2" to-layer="365" to-port="0" />
		<edge from-layer="363" from-port="0" to-layer="365" to-port="1" />
		<edge from-layer="364" from-port="0" to-layer="365" to-port="2" />
		<edge from-layer="365" from-port="3" to-layer="366" to-port="1" />
		<edge from-layer="366" from-port="2" to-layer="367" to-port="1" />
		<edge from-layer="367" from-port="2" to-layer="369" to-port="0" />
		<edge from-layer="368" from-port="0" to-layer="369" to-port="1" />
		<edge from-layer="369" from-port="2" to-layer="450" to-port="1" />
		<edge from-layer="370" from-port="0" to-layer="371" to-port="1" />
		<edge from-layer="371" from-port="2" to-layer="387" to-port="0" />
		<edge from-layer="371" from-port="2" to-layer="386" to-port="0" />
		<edge from-layer="371" from-port="2" to-layer="373" to-port="0" />
		<edge from-layer="372" from-port="0" to-layer="373" to-port="1" />
		<edge from-layer="373" from-port="2" to-layer="375" to-port="0" />
		<edge from-layer="374" from-port="0" to-layer="375" to-port="1" />
		<edge from-layer="375" from-port="2" to-layer="377" to-port="0" />
		<edge from-layer="376" from-port="0" to-layer="377" to-port="1" />
		<edge from-layer="377" from-port="2" to-layer="378" to-port="0" />
		<edge from-layer="378" from-port="1" to-layer="380" to-port="0" />
		<edge from-layer="379" from-port="0" to-layer="380" to-port="1" />
		<edge from-layer="380" from-port="2" to-layer="382" to-port="0" />
		<edge from-layer="381" from-port="0" to-layer="382" to-port="1" />
		<edge from-layer="382" from-port="2" to-layer="385" to-port="0" />
		<edge from-layer="383" from-port="0" to-layer="385" to-port="1" />
		<edge from-layer="384" from-port="0" to-layer="385" to-port="2" />
		<edge from-layer="385" from-port="3" to-layer="386" to-port="1" />
		<edge from-layer="386" from-port="2" to-layer="387" to-port="1" />
		<edge from-layer="387" from-port="2" to-layer="390" to-port="0" />
		<edge from-layer="388" from-port="0" to-layer="389" to-port="1" />
		<edge from-layer="389" from-port="2" to-layer="390" to-port="1" />
		<edge from-layer="390" from-port="2" to-layer="430" to-port="0" />
		<edge from-layer="390" from-port="2" to-layer="392" to-port="0" />
		<edge from-layer="391" from-port="0" to-layer="392" to-port="1" />
		<edge from-layer="392" from-port="2" to-layer="394" to-port="0" />
		<edge from-layer="392" from-port="2" to-layer="408" to-port="0" />
		<edge from-layer="392" from-port="2" to-layer="407" to-port="0" />
		<edge from-layer="393" from-port="0" to-layer="394" to-port="1" />
		<edge from-layer="394" from-port="2" to-layer="396" to-port="0" />
		<edge from-layer="395" from-port="0" to-layer="396" to-port="1" />
		<edge from-layer="396" from-port="2" to-layer="398" to-port="0" />
		<edge from-layer="397" from-port="0" to-layer="398" to-port="1" />
		<edge from-layer="398" from-port="2" to-layer="399" to-port="0" />
		<edge from-layer="399" from-port="1" to-layer="401" to-port="0" />
		<edge from-layer="400" from-port="0" to-layer="401" to-port="1" />
		<edge from-layer="401" from-port="2" to-layer="403" to-port="0" />
		<edge from-layer="402" from-port="0" to-layer="403" to-port="1" />
		<edge from-layer="403" from-port="2" to-layer="406" to-port="0" />
		<edge from-layer="404" from-port="0" to-layer="406" to-port="1" />
		<edge from-layer="405" from-port="0" to-layer="406" to-port="2" />
		<edge from-layer="406" from-port="3" to-layer="407" to-port="1" />
		<edge from-layer="407" from-port="2" to-layer="408" to-port="1" />
		<edge from-layer="408" from-port="2" to-layer="410" to-port="0" />
		<edge from-layer="409" from-port="0" to-layer="410" to-port="1" />
		<edge from-layer="410" from-port="2" to-layer="450" to-port="2" />
		<edge from-layer="411" from-port="0" to-layer="412" to-port="1" />
		<edge from-layer="412" from-port="2" to-layer="414" to-port="0" />
		<edge from-layer="412" from-port="2" to-layer="428" to-port="0" />
		<edge from-layer="412" from-port="2" to-layer="427" to-port="0" />
		<edge from-layer="413" from-port="0" to-layer="414" to-port="1" />
		<edge from-layer="414" from-port="2" to-layer="416" to-port="0" />
		<edge from-layer="415" from-port="0" to-layer="416" to-port="1" />
		<edge from-layer="416" from-port="2" to-layer="418" to-port="0" />
		<edge from-layer="417" from-port="0" to-layer="418" to-port="1" />
		<edge from-layer="418" from-port="2" to-layer="419" to-port="0" />
		<edge from-layer="419" from-port="1" to-layer="421" to-port="0" />
		<edge from-layer="420" from-port="0" to-layer="421" to-port="1" />
		<edge from-layer="421" from-port="2" to-layer="423" to-port="0" />
		<edge from-layer="422" from-port="0" to-layer="423" to-port="1" />
		<edge from-layer="423" from-port="2" to-layer="426" to-port="0" />
		<edge from-layer="424" from-port="0" to-layer="426" to-port="1" />
		<edge from-layer="425" from-port="0" to-layer="426" to-port="2" />
		<edge from-layer="426" from-port="3" to-layer="427" to-port="1" />
		<edge from-layer="427" from-port="2" to-layer="428" to-port="1" />
		<edge from-layer="428" from-port="2" to-layer="431" to-port="0" />
		<edge from-layer="429" from-port="0" to-layer="430" to-port="1" />
		<edge from-layer="430" from-port="2" to-layer="431" to-port="1" />
		<edge from-layer="431" from-port="2" to-layer="433" to-port="0" />
		<edge from-layer="432" from-port="0" to-layer="433" to-port="1" />
		<edge from-layer="433" from-port="2" to-layer="448" to-port="0" />
		<edge from-layer="433" from-port="2" to-layer="449" to-port="0" />
		<edge from-layer="433" from-port="2" to-layer="435" to-port="0" />
		<edge from-layer="434" from-port="0" to-layer="435" to-port="1" />
		<edge from-layer="435" from-port="2" to-layer="437" to-port="0" />
		<edge from-layer="436" from-port="0" to-layer="437" to-port="1" />
		<edge from-layer="437" from-port="2" to-layer="439" to-port="0" />
		<edge from-layer="438" from-port="0" to-layer="439" to-port="1" />
		<edge from-layer="439" from-port="2" to-layer="440" to-port="0" />
		<edge from-layer="440" from-port="1" to-layer="442" to-port="0" />
		<edge from-layer="441" from-port="0" to-layer="442" to-port="1" />
		<edge from-layer="442" from-port="2" to-layer="444" to-port="0" />
		<edge from-layer="443" from-port="0" to-layer="444" to-port="1" />
		<edge from-layer="444" from-port="2" to-layer="447" to-port="0" />
		<edge from-layer="445" from-port="0" to-layer="447" to-port="1" />
		<edge from-layer="446" from-port="0" to-layer="447" to-port="2" />
		<edge from-layer="447" from-port="3" to-layer="448" to-port="1" />
		<edge from-layer="448" from-port="2" to-layer="449" to-port="1" />
		<edge from-layer="449" from-port="2" to-layer="450" to-port="3" />
		<edge from-layer="450" from-port="4" to-layer="452" to-port="0" />
		<edge from-layer="451" from-port="0" to-layer="452" to-port="1" />
		<edge from-layer="452" from-port="2" to-layer="454" to-port="0" />
		<edge from-layer="453" from-port="0" to-layer="454" to-port="1" />
		<edge from-layer="454" from-port="2" to-layer="455" to-port="0" />
		<edge from-layer="455" from-port="1" to-layer="457" to-port="0" />
		<edge from-layer="456" from-port="0" to-layer="457" to-port="1" />
		<edge from-layer="457" from-port="2" to-layer="459" to-port="0" />
		<edge from-layer="458" from-port="0" to-layer="459" to-port="1" />
		<edge from-layer="459" from-port="2" to-layer="460" to-port="0" />
		<edge from-layer="460" from-port="1" to-layer="462" to-port="0" />
		<edge from-layer="461" from-port="0" to-layer="462" to-port="1" />
		<edge from-layer="462" from-port="2" to-layer="464" to-port="0" />
		<edge from-layer="463" from-port="0" to-layer="464" to-port="1" />
		<edge from-layer="464" from-port="2" to-layer="465" to-port="0" />
		<edge from-layer="465" from-port="1" to-layer="466" to-port="0" />
	</edges>
	<rt_info>
		<MO_version value="2024.6.0-17404-4c0f47d2335-releases/2024/6" />
		<Runtime_version value="2024.6.0-17404-4c0f47d2335-releases/2024/6" />
		<conversion_parameters>
			<framework value="onnx" />
			<input_model value="DIR/inference.onnx" />
			<is_python_api_used value="False" />
			<output_dir value="DIR" />
		</conversion_parameters>
		<legacy_frontend value="False" />
	</rt_info>
</net>
